<?xml version="1.0"?>
<net name="Model0" version="11">
<layers>
<layer id="0" name="x" type="Parameter" version="opset1">
<data shape="1,3,640,640" element_type="f32"/>
<output>
<port id="0" precision="FP32" names="x">
<dim>1</dim>
<dim>3</dim>
<dim>640</dim>
<dim>640</dim>
</port>
</output>
</layer>
<layer id="1" name="__module.model.22/aten::unsqueeze/Unsqueeze" type="Const" version="opset1">
<data element_type="f32" shape="1, 2, 8400" offset="0" size="67200"/>
<output>
<port id="0" precision="FP32" names="940,anchor_points">
<dim>1</dim>
<dim>2</dim>
<dim>8400</dim>
</port>
</output>
</layer>
<layer id="2" name="x/fq_output_0/input_low" type="Const" version="opset1">
<data element_type="f32" shape="" offset="67200" size="4"/>
<output>
<port id="0" precision="FP32"/>
</output>
</layer>
<layer id="3" name="x/fq_output_0/input_high" type="Const" version="opset1">
<data element_type="f32" shape="" offset="67204" size="4"/>
<output>
<port id="0" precision="FP32"/>
</output>
</layer>
<layer id="4" name="x/fq_output_0/output_low" type="Const" version="opset1">
<data element_type="f32" shape="" offset="67200" size="4"/>
<output>
<port id="0" precision="FP32"/>
</output>
</layer>
<layer id="5" name="x/fq_output_0/output_high" type="Const" version="opset1">
<data element_type="f32" shape="" offset="67204" size="4"/>
<output>
<port id="0" precision="FP32"/>
</output>
</layer>
<layer id="6" name="x/fq_output_0" type="FakeQuantize" version="opset1">
<data levels="256" auto_broadcast="numpy"/>
<input>
<port id="0" precision="FP32">
<dim>1</dim>
<dim>3</dim>
<dim>640</dim>
<dim>640</dim>
</port>
<port id="1" precision="FP32"/>
<port id="2" precision="FP32"/>
<port id="3" precision="FP32"/>
<port id="4" precision="FP32"/>
</input>
<output>
<port id="5" precision="FP32">
<dim>1</dim>
<dim>3</dim>
<dim>640</dim>
<dim>640</dim>
</port>
</output>
</layer>
<layer id="7" name="Constant_372515" type="Const" version="opset1">
<data element_type="i8" shape="32, 3, 3, 3" offset="67208" size="864"/>
<output>
<port id="0" precision="I8">
<dim>32</dim>
<dim>3</dim>
<dim>3</dim>
<dim>3</dim>
</port>
</output>
</layer>
<layer id="8" name="Convert_372516" type="Convert" version="opset1">
<data destination_type="f32"/>
<input>
<port id="0" precision="I8">
<dim>32</dim>
<dim>3</dim>
<dim>3</dim>
<dim>3</dim>
</port>
</input>
<output>
<port id="1" precision="FP32">
<dim>32</dim>
<dim>3</dim>
<dim>3</dim>
<dim>3</dim>
</port>
</output>
</layer>
<layer id="9" name="Constant_372517" type="Const" version="opset1">
<data element_type="f32" shape="32, 1, 1, 1" offset="68072" size="128"/>
<output>
<port id="0" precision="FP32">
<dim>32</dim>
<dim>1</dim>
<dim>1</dim>
<dim>1</dim>
</port>
</output>
</layer>
<layer id="10" name="__module.model.0.conv/aten::_convolution/Convolution/fq_weights_1" type="Multiply" version="opset1">
<data auto_broadcast="numpy"/>
<input>
<port id="0" precision="FP32">
<dim>32</dim>
<dim>3</dim>
<dim>3</dim>
<dim>3</dim>
</port>
<port id="1" precision="FP32">
<dim>32</dim>
<dim>1</dim>
<dim>1</dim>
<dim>1</dim>
</port>
</input>
<output>
<port id="2" precision="FP32">
<dim>32</dim>
<dim>3</dim>
<dim>3</dim>
<dim>3</dim>
</port>
</output>
</layer>
<layer id="11" name="__module.model.0.conv/aten::_convolution/Convolution" type="Convolution" version="opset1">
<data strides="2, 2" dilations="1, 1" pads_begin="1, 1" pads_end="1, 1" auto_pad="explicit"/>
<input>
<port id="0" precision="FP32">
<dim>1</dim>
<dim>3</dim>
<dim>640</dim>
<dim>640</dim>
</port>
<port id="1" precision="FP32">
<dim>32</dim>
<dim>3</dim>
<dim>3</dim>
<dim>3</dim>
</port>
</input>
<output>
<port id="2" precision="FP32">
<dim>1</dim>
<dim>32</dim>
<dim>320</dim>
<dim>320</dim>
</port>
</output>
</layer>
<layer id="12" name="__module.model.0.conv/aten::_convolution/Reshape" type="Const" version="opset1">
<data element_type="f32" shape="1, 32, 1, 1" offset="68200" size="128"/>
<output>
<port id="0" precision="FP32">
<dim>1</dim>
<dim>32</dim>
<dim>1</dim>
<dim>1</dim>
</port>
</output>
</layer>
<layer id="13" name="__module.model.0.conv/aten::_convolution/Add" type="Add" version="opset1">
<data auto_broadcast="numpy"/>
<input>
<port id="0" precision="FP32">
<dim>1</dim>
<dim>32</dim>
<dim>320</dim>
<dim>320</dim>
</port>
<port id="1" precision="FP32">
<dim>1</dim>
<dim>32</dim>
<dim>1</dim>
<dim>1</dim>
</port>
</input>
<output>
<port id="2" precision="FP32" names="89_1">
<dim>1</dim>
<dim>32</dim>
<dim>320</dim>
<dim>320</dim>
</port>
</output>
</layer>
<layer id="14" name="__module.model.22.cv3.2.1.act/aten::silu_/Swish" type="Swish" version="opset4">
<input>
<port id="0" precision="FP32">
<dim>1</dim>
<dim>32</dim>
<dim>320</dim>
<dim>320</dim>
</port>
</input>
<output>
<port id="1" precision="FP32" names="89,input.1">
<dim>1</dim>
<dim>32</dim>
<dim>320</dim>
<dim>320</dim>
</port>
</output>
</layer>
<layer id="15" name="__module.model.22.cv3.2.1.act/aten::silu_/Swish/fq_output_0/input_low" type="Const" version="opset1">
<data element_type="f32" shape="" offset="68328" size="4"/>
<output>
<port id="0" precision="FP32"/>
</output>
</layer>
<layer id="16" name="__module.model.22.cv3.2.1.act/aten::silu_/Swish/fq_output_0/input_high" type="Const" version="opset1">
<data element_type="f32" shape="" offset="68332" size="4"/>
<output>
<port id="0" precision="FP32"/>
</output>
</layer>
<layer id="17" name="__module.model.22.cv3.2.1.act/aten::silu_/Swish/fq_output_0/output_low" type="Const" version="opset1">
<data element_type="f32" shape="" offset="68328" size="4"/>
<output>
<port id="0" precision="FP32"/>
</output>
</layer>
<layer id="18" name="__module.model.22.cv3.2.1.act/aten::silu_/Swish/fq_output_0/output_high" type="Const" version="opset1">
<data element_type="f32" shape="" offset="68332" size="4"/>
<output>
<port id="0" precision="FP32"/>
</output>
</layer>
<layer id="19" name="__module.model.22.cv3.2.1.act/aten::silu_/Swish/fq_output_0" type="FakeQuantize" version="opset1">
<data levels="256" auto_broadcast="numpy"/>
<input>
<port id="0" precision="FP32">
<dim>1</dim>
<dim>32</dim>
<dim>320</dim>
<dim>320</dim>
</port>
<port id="1" precision="FP32"/>
<port id="2" precision="FP32"/>
<port id="3" precision="FP32"/>
<port id="4" precision="FP32"/>
</input>
<output>
<port id="5" precision="FP32">
<dim>1</dim>
<dim>32</dim>
<dim>320</dim>
<dim>320</dim>
</port>
</output>
</layer>
<layer id="20" name="Constant_372519" type="Const" version="opset1">
<data element_type="i8" shape="64, 32, 3, 3" offset="68336" size="18432"/>
<output>
<port id="0" precision="I8">
<dim>64</dim>
<dim>32</dim>
<dim>3</dim>
<dim>3</dim>
</port>
</output>
</layer>
<layer id="21" name="Convert_372520" type="Convert" version="opset1">
<data destination_type="f32"/>
<input>
<port id="0" precision="I8">
<dim>64</dim>
<dim>32</dim>
<dim>3</dim>
<dim>3</dim>
</port>
</input>
<output>
<port id="1" precision="FP32">
<dim>64</dim>
<dim>32</dim>
<dim>3</dim>
<dim>3</dim>
</port>
</output>
</layer>
<layer id="22" name="Constant_372521" type="Const" version="opset1">
<data element_type="f32" shape="64, 1, 1, 1" offset="86768" size="256"/>
<output>
<port id="0" precision="FP32">
<dim>64</dim>
<dim>1</dim>
<dim>1</dim>
<dim>1</dim>
</port>
</output>
</layer>
<layer id="23" name="__module.model.1.conv/aten::_convolution/Convolution/fq_weights_1" type="Multiply" version="opset1">
<data auto_broadcast="numpy"/>
<input>
<port id="0" precision="FP32">
<dim>64</dim>
<dim>32</dim>
<dim>3</dim>
<dim>3</dim>
</port>
<port id="1" precision="FP32">
<dim>64</dim>
<dim>1</dim>
<dim>1</dim>
<dim>1</dim>
</port>
</input>
<output>
<port id="2" precision="FP32">
<dim>64</dim>
<dim>32</dim>
<dim>3</dim>
<dim>3</dim>
</port>
</output>
</layer>
<layer id="24" name="__module.model.1.conv/aten::_convolution/Convolution" type="Convolution" version="opset1">
<data strides="2, 2" dilations="1, 1" pads_begin="1, 1" pads_end="1, 1" auto_pad="explicit"/>
<input>
<port id="0" precision="FP32">
<dim>1</dim>
<dim>32</dim>
<dim>320</dim>
<dim>320</dim>
</port>
<port id="1" precision="FP32">
<dim>64</dim>
<dim>32</dim>
<dim>3</dim>
<dim>3</dim>
</port>
</input>
<output>
<port id="2" precision="FP32">
<dim>1</dim>
<dim>64</dim>
<dim>160</dim>
<dim>160</dim>
</port>
</output>
</layer>
<layer id="25" name="__module.model.1.conv/aten::_convolution/Reshape" type="Const" version="opset1">
<data element_type="f32" shape="1, 64, 1, 1" offset="87024" size="256"/>
<output>
<port id="0" precision="FP32">
<dim>1</dim>
<dim>64</dim>
<dim>1</dim>
<dim>1</dim>
</port>
</output>
</layer>
<layer id="26" name="__module.model.1.conv/aten::_convolution/Add" type="Add" version="opset1">
<data auto_broadcast="numpy"/>
<input>
<port id="0" precision="FP32">
<dim>1</dim>
<dim>64</dim>
<dim>160</dim>
<dim>160</dim>
</port>
<port id="1" precision="FP32">
<dim>1</dim>
<dim>64</dim>
<dim>1</dim>
<dim>1</dim>
</port>
</input>
<output>
<port id="2" precision="FP32" names="103_1">
<dim>1</dim>
<dim>64</dim>
<dim>160</dim>
<dim>160</dim>
</port>
</output>
</layer>
<layer id="27" name="__module.model.22.cv3.2.1.act/aten::silu_/Swish_1" type="Swish" version="opset4">
<input>
<port id="0" precision="FP32">
<dim>1</dim>
<dim>64</dim>
<dim>160</dim>
<dim>160</dim>
</port>
</input>
<output>
<port id="1" precision="FP32" names="103,input.5">
<dim>1</dim>
<dim>64</dim>
<dim>160</dim>
<dim>160</dim>
</port>
</output>
</layer>
<layer id="28" name="__module.model.22.cv3.2.1.act/aten::silu_/Swish_1/fq_output_0/input_low" type="Const" version="opset1">
<data element_type="f32" shape="" offset="87280" size="4"/>
<output>
<port id="0" precision="FP32"/>
</output>
</layer>
<layer id="29" name="__module.model.22.cv3.2.1.act/aten::silu_/Swish_1/fq_output_0/input_high" type="Const" version="opset1">
<data element_type="f32" shape="" offset="87284" size="4"/>
<output>
<port id="0" precision="FP32"/>
</output>
</layer>
<layer id="30" name="__module.model.22.cv3.2.1.act/aten::silu_/Swish_1/fq_output_0/output_low" type="Const" version="opset1">
<data element_type="f32" shape="" offset="87280" size="4"/>
<output>
<port id="0" precision="FP32"/>
</output>
</layer>
<layer id="31" name="__module.model.22.cv3.2.1.act/aten::silu_/Swish_1/fq_output_0/output_high" type="Const" version="opset1">
<data element_type="f32" shape="" offset="87284" size="4"/>
<output>
<port id="0" precision="FP32"/>
</output>
</layer>
<layer id="32" name="__module.model.22.cv3.2.1.act/aten::silu_/Swish_1/fq_output_0" type="FakeQuantize" version="opset1">
<data levels="256" auto_broadcast="numpy"/>
<input>
<port id="0" precision="FP32">
<dim>1</dim>
<dim>64</dim>
<dim>160</dim>
<dim>160</dim>
</port>
<port id="1" precision="FP32"/>
<port id="2" precision="FP32"/>
<port id="3" precision="FP32"/>
<port id="4" precision="FP32"/>
</input>
<output>
<port id="5" precision="FP32">
<dim>1</dim>
<dim>64</dim>
<dim>160</dim>
<dim>160</dim>
</port>
</output>
</layer>
<layer id="33" name="Constant_372523" type="Const" version="opset1">
<data element_type="i8" shape="64, 64, 1, 1" offset="87288" size="4096"/>
<output>
<port id="0" precision="I8">
<dim>64</dim>
<dim>64</dim>
<dim>1</dim>
<dim>1</dim>
</port>
</output>
</layer>
<layer id="34" name="Convert_372524" type="Convert" version="opset1">
<data destination_type="f32"/>
<input>
<port id="0" precision="I8">
<dim>64</dim>
<dim>64</dim>
<dim>1</dim>
<dim>1</dim>
</port>
</input>
<output>
<port id="1" precision="FP32">
<dim>64</dim>
<dim>64</dim>
<dim>1</dim>
<dim>1</dim>
</port>
</output>
</layer>
<layer id="35" name="Constant_372525" type="Const" version="opset1">
<data element_type="f32" shape="64, 1, 1, 1" offset="91384" size="256"/>
<output>
<port id="0" precision="FP32">
<dim>64</dim>
<dim>1</dim>
<dim>1</dim>
<dim>1</dim>
</port>
</output>
</layer>
<layer id="36" name="__module.model.2.cv1.conv/aten::_convolution/Convolution/fq_weights_1" type="Multiply" version="opset1">
<data auto_broadcast="numpy"/>
<input>
<port id="0" precision="FP32">
<dim>64</dim>
<dim>64</dim>
<dim>1</dim>
<dim>1</dim>
</port>
<port id="1" precision="FP32">
<dim>64</dim>
<dim>1</dim>
<dim>1</dim>
<dim>1</dim>
</port>
</input>
<output>
<port id="2" precision="FP32">
<dim>64</dim>
<dim>64</dim>
<dim>1</dim>
<dim>1</dim>
</port>
</output>
</layer>
<layer id="37" name="__module.model.2.cv1.conv/aten::_convolution/Convolution" type="Convolution" version="opset1">
<data strides="1, 1" dilations="1, 1" pads_begin="0, 0" pads_end="0, 0" auto_pad="explicit"/>
<input>
<port id="0" precision="FP32">
<dim>1</dim>
<dim>64</dim>
<dim>160</dim>
<dim>160</dim>
</port>
<port id="1" precision="FP32">
<dim>64</dim>
<dim>64</dim>
<dim>1</dim>
<dim>1</dim>
</port>
</input>
<output>
<port id="2" precision="FP32">
<dim>1</dim>
<dim>64</dim>
<dim>160</dim>
<dim>160</dim>
</port>
</output>
</layer>
<layer id="38" name="__module.model.2.cv1.conv/aten::_convolution/Reshape" type="Const" version="opset1">
<data element_type="f32" shape="1, 64, 1, 1" offset="91640" size="256"/>
<output>
<port id="0" precision="FP32">
<dim>1</dim>
<dim>64</dim>
<dim>1</dim>
<dim>1</dim>
</port>
</output>
</layer>
<layer id="39" name="__module.model.2.cv1.conv/aten::_convolution/Add" type="Add" version="opset1">
<data auto_broadcast="numpy"/>
<input>
<port id="0" precision="FP32">
<dim>1</dim>
<dim>64</dim>
<dim>160</dim>
<dim>160</dim>
</port>
<port id="1" precision="FP32">
<dim>1</dim>
<dim>64</dim>
<dim>1</dim>
<dim>1</dim>
</port>
</input>
<output>
<port id="2" precision="FP32" names="121_1">
<dim>1</dim>
<dim>64</dim>
<dim>160</dim>
<dim>160</dim>
</port>
</output>
</layer>
<layer id="40" name="__module.model.22.cv3.2.1.act/aten::silu_/Swish_2" type="Swish" version="opset4">
<input>
<port id="0" precision="FP32">
<dim>1</dim>
<dim>64</dim>
<dim>160</dim>
<dim>160</dim>
</port>
</input>
<output>
<port id="1" precision="FP32" names="121,input.9">
<dim>1</dim>
<dim>64</dim>
<dim>160</dim>
<dim>160</dim>
</port>
</output>
</layer>
<layer id="41" name="__module.model.22.cv3.2.1.act/aten::silu_/Swish_2/fq_output_0/input_low" type="Const" version="opset1">
<data element_type="f32" shape="" offset="91896" size="4"/>
<output>
<port id="0" precision="FP32"/>
</output>
</layer>
<layer id="42" name="__module.model.22.cv3.2.1.act/aten::silu_/Swish_2/fq_output_0/input_high" type="Const" version="opset1">
<data element_type="f32" shape="" offset="91900" size="4"/>
<output>
<port id="0" precision="FP32"/>
</output>
</layer>
<layer id="43" name="__module.model.22.cv3.2.1.act/aten::silu_/Swish_2/fq_output_0/output_low" type="Const" version="opset1">
<data element_type="f32" shape="" offset="91896" size="4"/>
<output>
<port id="0" precision="FP32"/>
</output>
</layer>
<layer id="44" name="__module.model.22.cv3.2.1.act/aten::silu_/Swish_2/fq_output_0/output_high" type="Const" version="opset1">
<data element_type="f32" shape="" offset="91900" size="4"/>
<output>
<port id="0" precision="FP32"/>
</output>
</layer>
<layer id="45" name="__module.model.22.cv3.2.1.act/aten::silu_/Swish_2/fq_output_0" type="FakeQuantize" version="opset1">
<data levels="256" auto_broadcast="numpy"/>
<input>
<port id="0" precision="FP32">
<dim>1</dim>
<dim>64</dim>
<dim>160</dim>
<dim>160</dim>
</port>
<port id="1" precision="FP32"/>
<port id="2" precision="FP32"/>
<port id="3" precision="FP32"/>
<port id="4" precision="FP32"/>
</input>
<output>
<port id="5" precision="FP32">
<dim>1</dim>
<dim>64</dim>
<dim>160</dim>
<dim>160</dim>
</port>
</output>
</layer>
<layer id="46" name="109" type="Const" version="opset1">
<data element_type="i64" shape="" offset="91904" size="8"/>
<output>
<port id="0" precision="I64" names="109"/>
</output>
</layer>
<layer id="47" name="Constant_228" type="Const" version="opset1">
<data element_type="i64" shape="2" offset="91912" size="16"/>
<output>
<port id="0" precision="I64">
<dim>2</dim>
</port>
</output>
</layer>
<layer id="48" name="__module.model.2/aten::split_with_sizes/VariadicSplit" type="VariadicSplit" version="opset1">
<input>
<port id="0" precision="FP32">
<dim>1</dim>
<dim>64</dim>
<dim>160</dim>
<dim>160</dim>
</port>
<port id="1" precision="I64"/>
<port id="2" precision="I64">
<dim>2</dim>
</port>
</input>
<output>
<port id="3" precision="FP32" names="125">
<dim>1</dim>
<dim>32</dim>
<dim>160</dim>
<dim>160</dim>
</port>
<port id="4" precision="FP32" names="126,input.11">
<dim>1</dim>
<dim>32</dim>
<dim>160</dim>
<dim>160</dim>
</port>
</output>
</layer>
<layer id="49" name="Constant_372527" type="Const" version="opset1">
<data element_type="i8" shape="32, 32, 3, 3" offset="91928" size="9216"/>
<output>
<port id="0" precision="I8">
<dim>32</dim>
<dim>32</dim>
<dim>3</dim>
<dim>3</dim>
</port>
</output>
</layer>
<layer id="50" name="Convert_372528" type="Convert" version="opset1">
<data destination_type="f32"/>
<input>
<port id="0" precision="I8">
<dim>32</dim>
<dim>32</dim>
<dim>3</dim>
<dim>3</dim>
</port>
</input>
<output>
<port id="1" precision="FP32">
<dim>32</dim>
<dim>32</dim>
<dim>3</dim>
<dim>3</dim>
</port>
</output>
</layer>
<layer id="51" name="Constant_372529" type="Const" version="opset1">
<data element_type="f32" shape="32, 1, 1, 1" offset="101144" size="128"/>
<output>
<port id="0" precision="FP32">
<dim>32</dim>
<dim>1</dim>
<dim>1</dim>
<dim>1</dim>
</port>
</output>
</layer>
<layer id="52" name="__module.model.2.m.0.cv1.conv/aten::_convolution/Convolution/fq_weights_1" type="Multiply" version="opset1">
<data auto_broadcast="numpy"/>
<input>
<port id="0" precision="FP32">
<dim>32</dim>
<dim>32</dim>
<dim>3</dim>
<dim>3</dim>
</port>
<port id="1" precision="FP32">
<dim>32</dim>
<dim>1</dim>
<dim>1</dim>
<dim>1</dim>
</port>
</input>
<output>
<port id="2" precision="FP32">
<dim>32</dim>
<dim>32</dim>
<dim>3</dim>
<dim>3</dim>
</port>
</output>
</layer>
<layer id="53" name="__module.model.2.m.0.cv1.conv/aten::_convolution/Convolution" type="Convolution" version="opset1">
<data strides="1, 1" dilations="1, 1" pads_begin="1, 1" pads_end="1, 1" auto_pad="explicit"/>
<input>
<port id="0" precision="FP32">
<dim>1</dim>
<dim>32</dim>
<dim>160</dim>
<dim>160</dim>
</port>
<port id="1" precision="FP32">
<dim>32</dim>
<dim>32</dim>
<dim>3</dim>
<dim>3</dim>
</port>
</input>
<output>
<port id="2" precision="FP32">
<dim>1</dim>
<dim>32</dim>
<dim>160</dim>
<dim>160</dim>
</port>
</output>
</layer>
<layer id="54" name="__module.model.2.m.0.cv1.conv/aten::_convolution/Reshape" type="Const" version="opset1">
<data element_type="f32" shape="1, 32, 1, 1" offset="101272" size="128"/>
<output>
<port id="0" precision="FP32">
<dim>1</dim>
<dim>32</dim>
<dim>1</dim>
<dim>1</dim>
</port>
</output>
</layer>
<layer id="55" name="__module.model.2.m.0.cv1.conv/aten::_convolution/Add" type="Add" version="opset1">
<data auto_broadcast="numpy"/>
<input>
<port id="0" precision="FP32">
<dim>1</dim>
<dim>32</dim>
<dim>160</dim>
<dim>160</dim>
</port>
<port id="1" precision="FP32">
<dim>1</dim>
<dim>32</dim>
<dim>1</dim>
<dim>1</dim>
</port>
</input>
<output>
<port id="2" precision="FP32" names="136_1">
<dim>1</dim>
<dim>32</dim>
<dim>160</dim>
<dim>160</dim>
</port>
</output>
</layer>
<layer id="56" name="__module.model.22.cv3.2.1.act/aten::silu_/Swish_3" type="Swish" version="opset4">
<input>
<port id="0" precision="FP32">
<dim>1</dim>
<dim>32</dim>
<dim>160</dim>
<dim>160</dim>
</port>
</input>
<output>
<port id="1" precision="FP32" names="136,input.13">
<dim>1</dim>
<dim>32</dim>
<dim>160</dim>
<dim>160</dim>
</port>
</output>
</layer>
<layer id="57" name="__module.model.22.cv3.2.1.act/aten::silu_/Swish_3/fq_output_0/input_low" type="Const" version="opset1">
<data element_type="f32" shape="" offset="101400" size="4"/>
<output>
<port id="0" precision="FP32"/>
</output>
</layer>
<layer id="58" name="__module.model.22.cv3.2.1.act/aten::silu_/Swish_3/fq_output_0/input_high" type="Const" version="opset1">
<data element_type="f32" shape="" offset="101404" size="4"/>
<output>
<port id="0" precision="FP32"/>
</output>
</layer>
<layer id="59" name="__module.model.22.cv3.2.1.act/aten::silu_/Swish_3/fq_output_0/output_low" type="Const" version="opset1">
<data element_type="f32" shape="" offset="101400" size="4"/>
<output>
<port id="0" precision="FP32"/>
</output>
</layer>
<layer id="60" name="__module.model.22.cv3.2.1.act/aten::silu_/Swish_3/fq_output_0/output_high" type="Const" version="opset1">
<data element_type="f32" shape="" offset="101404" size="4"/>
<output>
<port id="0" precision="FP32"/>
</output>
</layer>
<layer id="61" name="__module.model.22.cv3.2.1.act/aten::silu_/Swish_3/fq_output_0" type="FakeQuantize" version="opset1">
<data levels="256" auto_broadcast="numpy"/>
<input>
<port id="0" precision="FP32">
<dim>1</dim>
<dim>32</dim>
<dim>160</dim>
<dim>160</dim>
</port>
<port id="1" precision="FP32"/>
<port id="2" precision="FP32"/>
<port id="3" precision="FP32"/>
<port id="4" precision="FP32"/>
</input>
<output>
<port id="5" precision="FP32">
<dim>1</dim>
<dim>32</dim>
<dim>160</dim>
<dim>160</dim>
</port>
</output>
</layer>
<layer id="62" name="Constant_372531" type="Const" version="opset1">
<data element_type="i8" shape="32, 32, 3, 3" offset="101408" size="9216"/>
<output>
<port id="0" precision="I8">
<dim>32</dim>
<dim>32</dim>
<dim>3</dim>
<dim>3</dim>
</port>
</output>
</layer>
<layer id="63" name="Convert_372532" type="Convert" version="opset1">
<data destination_type="f32"/>
<input>
<port id="0" precision="I8">
<dim>32</dim>
<dim>32</dim>
<dim>3</dim>
<dim>3</dim>
</port>
</input>
<output>
<port id="1" precision="FP32">
<dim>32</dim>
<dim>32</dim>
<dim>3</dim>
<dim>3</dim>
</port>
</output>
</layer>
<layer id="64" name="Constant_372533" type="Const" version="opset1">
<data element_type="f32" shape="32, 1, 1, 1" offset="110624" size="128"/>
<output>
<port id="0" precision="FP32">
<dim>32</dim>
<dim>1</dim>
<dim>1</dim>
<dim>1</dim>
</port>
</output>
</layer>
<layer id="65" name="__module.model.2.m.0.cv2.conv/aten::_convolution/Convolution/fq_weights_1" type="Multiply" version="opset1">
<data auto_broadcast="numpy"/>
<input>
<port id="0" precision="FP32">
<dim>32</dim>
<dim>32</dim>
<dim>3</dim>
<dim>3</dim>
</port>
<port id="1" precision="FP32">
<dim>32</dim>
<dim>1</dim>
<dim>1</dim>
<dim>1</dim>
</port>
</input>
<output>
<port id="2" precision="FP32">
<dim>32</dim>
<dim>32</dim>
<dim>3</dim>
<dim>3</dim>
</port>
</output>
</layer>
<layer id="66" name="__module.model.2.m.0.cv2.conv/aten::_convolution/Convolution" type="Convolution" version="opset1">
<data strides="1, 1" dilations="1, 1" pads_begin="1, 1" pads_end="1, 1" auto_pad="explicit"/>
<input>
<port id="0" precision="FP32">
<dim>1</dim>
<dim>32</dim>
<dim>160</dim>
<dim>160</dim>
</port>
<port id="1" precision="FP32">
<dim>32</dim>
<dim>32</dim>
<dim>3</dim>
<dim>3</dim>
</port>
</input>
<output>
<port id="2" precision="FP32">
<dim>1</dim>
<dim>32</dim>
<dim>160</dim>
<dim>160</dim>
</port>
</output>
</layer>
<layer id="67" name="__module.model.2.m.0.cv2.conv/aten::_convolution/Reshape" type="Const" version="opset1">
<data element_type="f32" shape="1, 32, 1, 1" offset="110752" size="128"/>
<output>
<port id="0" precision="FP32">
<dim>1</dim>
<dim>32</dim>
<dim>1</dim>
<dim>1</dim>
</port>
</output>
</layer>
<layer id="68" name="__module.model.2.m.0.cv2.conv/aten::_convolution/Add" type="Add" version="opset1">
<data auto_broadcast="numpy"/>
<input>
<port id="0" precision="FP32">
<dim>1</dim>
<dim>32</dim>
<dim>160</dim>
<dim>160</dim>
</port>
<port id="1" precision="FP32">
<dim>1</dim>
<dim>32</dim>
<dim>1</dim>
<dim>1</dim>
</port>
</input>
<output>
<port id="2" precision="FP32" names="145_1">
<dim>1</dim>
<dim>32</dim>
<dim>160</dim>
<dim>160</dim>
</port>
</output>
</layer>
<layer id="69" name="__module.model.22.cv3.2.1.act/aten::silu_/Swish_4" type="Swish" version="opset4">
<input>
<port id="0" precision="FP32">
<dim>1</dim>
<dim>32</dim>
<dim>160</dim>
<dim>160</dim>
</port>
</input>
<output>
<port id="1" precision="FP32" names="145,input.17">
<dim>1</dim>
<dim>32</dim>
<dim>160</dim>
<dim>160</dim>
</port>
</output>
</layer>
<layer id="70" name="__module.model.22.cv3.2.1.act/aten::silu_/Swish_4/fq_output_0/input_low" type="Const" version="opset1">
<data element_type="f32" shape="" offset="87280" size="4"/>
<output>
<port id="0" precision="FP32"/>
</output>
</layer>
<layer id="71" name="__module.model.22.cv3.2.1.act/aten::silu_/Swish_4/fq_output_0/input_high" type="Const" version="opset1">
<data element_type="f32" shape="" offset="110880" size="4"/>
<output>
<port id="0" precision="FP32"/>
</output>
</layer>
<layer id="72" name="__module.model.22.cv3.2.1.act/aten::silu_/Swish_4/fq_output_0/output_low" type="Const" version="opset1">
<data element_type="f32" shape="" offset="87280" size="4"/>
<output>
<port id="0" precision="FP32"/>
</output>
</layer>
<layer id="73" name="__module.model.22.cv3.2.1.act/aten::silu_/Swish_4/fq_output_0/output_high" type="Const" version="opset1">
<data element_type="f32" shape="" offset="110880" size="4"/>
<output>
<port id="0" precision="FP32"/>
</output>
</layer>
<layer id="74" name="__module.model.22.cv3.2.1.act/aten::silu_/Swish_4/fq_output_0" type="FakeQuantize" version="opset1">
<data levels="256" auto_broadcast="numpy"/>
<input>
<port id="0" precision="FP32">
<dim>1</dim>
<dim>32</dim>
<dim>160</dim>
<dim>160</dim>
</port>
<port id="1" precision="FP32"/>
<port id="2" precision="FP32"/>
<port id="3" precision="FP32"/>
<port id="4" precision="FP32"/>
</input>
<output>
<port id="5" precision="FP32">
<dim>1</dim>
<dim>32</dim>
<dim>160</dim>
<dim>160</dim>
</port>
</output>
</layer>
<layer id="75" name="__module.model.2.m.0/aten::add/Add" type="Add" version="opset1">
<data auto_broadcast="numpy"/>
<input>
<port id="0" precision="FP32">
<dim>1</dim>
<dim>32</dim>
<dim>160</dim>
<dim>160</dim>
</port>
<port id="1" precision="FP32">
<dim>1</dim>
<dim>32</dim>
<dim>160</dim>
<dim>160</dim>
</port>
</input>
<output>
<port id="2" precision="FP32" names="147">
<dim>1</dim>
<dim>32</dim>
<dim>160</dim>
<dim>160</dim>
</port>
</output>
</layer>
<layer id="76" name="__module.model.2.m.0/aten::add/Add/fq_output_0/input_low" type="Const" version="opset1">
<data element_type="f32" shape="" offset="91896" size="4"/>
<output>
<port id="0" precision="FP32"/>
</output>
</layer>
<layer id="77" name="__module.model.2.m.0/aten::add/Add/fq_output_0/input_high" type="Const" version="opset1">
<data element_type="f32" shape="" offset="91900" size="4"/>
<output>
<port id="0" precision="FP32"/>
</output>
</layer>
<layer id="78" name="__module.model.2.m.0/aten::add/Add/fq_output_0/output_low" type="Const" version="opset1">
<data element_type="f32" shape="" offset="91896" size="4"/>
<output>
<port id="0" precision="FP32"/>
</output>
</layer>
<layer id="79" name="__module.model.2.m.0/aten::add/Add/fq_output_0/output_high" type="Const" version="opset1">
<data element_type="f32" shape="" offset="91900" size="4"/>
<output>
<port id="0" precision="FP32"/>
</output>
</layer>
<layer id="80" name="__module.model.2.m.0/aten::add/Add/fq_output_0" type="FakeQuantize" version="opset1">
<data levels="256" auto_broadcast="numpy"/>
<input>
<port id="0" precision="FP32">
<dim>1</dim>
<dim>32</dim>
<dim>160</dim>
<dim>160</dim>
</port>
<port id="1" precision="FP32"/>
<port id="2" precision="FP32"/>
<port id="3" precision="FP32"/>
<port id="4" precision="FP32"/>
</input>
<output>
<port id="5" precision="FP32">
<dim>1</dim>
<dim>32</dim>
<dim>160</dim>
<dim>160</dim>
</port>
</output>
</layer>
<layer id="81" name="__module.model.2/aten::cat/Concat" type="Concat" version="opset1">
<data axis="1"/>
<input>
<port id="0" precision="FP32">
<dim>1</dim>
<dim>32</dim>
<dim>160</dim>
<dim>160</dim>
</port>
<port id="1" precision="FP32">
<dim>1</dim>
<dim>32</dim>
<dim>160</dim>
<dim>160</dim>
</port>
<port id="2" precision="FP32">
<dim>1</dim>
<dim>32</dim>
<dim>160</dim>
<dim>160</dim>
</port>
</input>
<output>
<port id="3" precision="FP32" names="149,input.19">
<dim>1</dim>
<dim>96</dim>
<dim>160</dim>
<dim>160</dim>
</port>
</output>
</layer>
<layer id="82" name="Constant_372535" type="Const" version="opset1">
<data element_type="i8" shape="64, 96, 1, 1" offset="110884" size="6144"/>
<output>
<port id="0" precision="I8">
<dim>64</dim>
<dim>96</dim>
<dim>1</dim>
<dim>1</dim>
</port>
</output>
</layer>
<layer id="83" name="Convert_372536" type="Convert" version="opset1">
<data destination_type="f32"/>
<input>
<port id="0" precision="I8">
<dim>64</dim>
<dim>96</dim>
<dim>1</dim>
<dim>1</dim>
</port>
</input>
<output>
<port id="1" precision="FP32">
<dim>64</dim>
<dim>96</dim>
<dim>1</dim>
<dim>1</dim>
</port>
</output>
</layer>
<layer id="84" name="Constant_372537" type="Const" version="opset1">
<data element_type="f32" shape="64, 1, 1, 1" offset="117028" size="256"/>
<output>
<port id="0" precision="FP32">
<dim>64</dim>
<dim>1</dim>
<dim>1</dim>
<dim>1</dim>
</port>
</output>
</layer>
<layer id="85" name="__module.model.2.cv2.conv/aten::_convolution/Convolution/fq_weights_1" type="Multiply" version="opset1">
<data auto_broadcast="numpy"/>
<input>
<port id="0" precision="FP32">
<dim>64</dim>
<dim>96</dim>
<dim>1</dim>
<dim>1</dim>
</port>
<port id="1" precision="FP32">
<dim>64</dim>
<dim>1</dim>
<dim>1</dim>
<dim>1</dim>
</port>
</input>
<output>
<port id="2" precision="FP32">
<dim>64</dim>
<dim>96</dim>
<dim>1</dim>
<dim>1</dim>
</port>
</output>
</layer>
<layer id="86" name="__module.model.2.cv2.conv/aten::_convolution/Convolution" type="Convolution" version="opset1">
<data strides="1, 1" dilations="1, 1" pads_begin="0, 0" pads_end="0, 0" auto_pad="explicit"/>
<input>
<port id="0" precision="FP32">
<dim>1</dim>
<dim>96</dim>
<dim>160</dim>
<dim>160</dim>
</port>
<port id="1" precision="FP32">
<dim>64</dim>
<dim>96</dim>
<dim>1</dim>
<dim>1</dim>
</port>
</input>
<output>
<port id="2" precision="FP32">
<dim>1</dim>
<dim>64</dim>
<dim>160</dim>
<dim>160</dim>
</port>
</output>
</layer>
<layer id="87" name="__module.model.2.cv2.conv/aten::_convolution/Reshape" type="Const" version="opset1">
<data element_type="f32" shape="1, 64, 1, 1" offset="117284" size="256"/>
<output>
<port id="0" precision="FP32">
<dim>1</dim>
<dim>64</dim>
<dim>1</dim>
<dim>1</dim>
</port>
</output>
</layer>
<layer id="88" name="__module.model.2.cv2.conv/aten::_convolution/Add" type="Add" version="opset1">
<data auto_broadcast="numpy"/>
<input>
<port id="0" precision="FP32">
<dim>1</dim>
<dim>64</dim>
<dim>160</dim>
<dim>160</dim>
</port>
<port id="1" precision="FP32">
<dim>1</dim>
<dim>64</dim>
<dim>1</dim>
<dim>1</dim>
</port>
</input>
<output>
<port id="2" precision="FP32" names="157_1">
<dim>1</dim>
<dim>64</dim>
<dim>160</dim>
<dim>160</dim>
</port>
</output>
</layer>
<layer id="89" name="__module.model.22.cv3.2.1.act/aten::silu_/Swish_5" type="Swish" version="opset4">
<input>
<port id="0" precision="FP32">
<dim>1</dim>
<dim>64</dim>
<dim>160</dim>
<dim>160</dim>
</port>
</input>
<output>
<port id="1" precision="FP32" names="157,input.21">
<dim>1</dim>
<dim>64</dim>
<dim>160</dim>
<dim>160</dim>
</port>
</output>
</layer>
<layer id="90" name="__module.model.22.cv3.2.1.act/aten::silu_/Swish_5/fq_output_0/input_low" type="Const" version="opset1">
<data element_type="f32" shape="" offset="117540" size="4"/>
<output>
<port id="0" precision="FP32"/>
</output>
</layer>
<layer id="91" name="__module.model.22.cv3.2.1.act/aten::silu_/Swish_5/fq_output_0/input_high" type="Const" version="opset1">
<data element_type="f32" shape="" offset="117544" size="4"/>
<output>
<port id="0" precision="FP32"/>
</output>
</layer>
<layer id="92" name="__module.model.22.cv3.2.1.act/aten::silu_/Swish_5/fq_output_0/output_low" type="Const" version="opset1">
<data element_type="f32" shape="" offset="117540" size="4"/>
<output>
<port id="0" precision="FP32"/>
</output>
</layer>
<layer id="93" name="__module.model.22.cv3.2.1.act/aten::silu_/Swish_5/fq_output_0/output_high" type="Const" version="opset1">
<data element_type="f32" shape="" offset="117544" size="4"/>
<output>
<port id="0" precision="FP32"/>
</output>
</layer>
<layer id="94" name="__module.model.22.cv3.2.1.act/aten::silu_/Swish_5/fq_output_0" type="FakeQuantize" version="opset1">
<data levels="256" auto_broadcast="numpy"/>
<input>
<port id="0" precision="FP32">
<dim>1</dim>
<dim>64</dim>
<dim>160</dim>
<dim>160</dim>
</port>
<port id="1" precision="FP32"/>
<port id="2" precision="FP32"/>
<port id="3" precision="FP32"/>
<port id="4" precision="FP32"/>
</input>
<output>
<port id="5" precision="FP32">
<dim>1</dim>
<dim>64</dim>
<dim>160</dim>
<dim>160</dim>
</port>
</output>
</layer>
<layer id="95" name="Constant_372539" type="Const" version="opset1">
<data element_type="i8" shape="128, 64, 3, 3" offset="117548" size="73728"/>
<output>
<port id="0" precision="I8">
<dim>128</dim>
<dim>64</dim>
<dim>3</dim>
<dim>3</dim>
</port>
</output>
</layer>
<layer id="96" name="Convert_372540" type="Convert" version="opset1">
<data destination_type="f32"/>
<input>
<port id="0" precision="I8">
<dim>128</dim>
<dim>64</dim>
<dim>3</dim>
<dim>3</dim>
</port>
</input>
<output>
<port id="1" precision="FP32">
<dim>128</dim>
<dim>64</dim>
<dim>3</dim>
<dim>3</dim>
</port>
</output>
</layer>
<layer id="97" name="Constant_372541" type="Const" version="opset1">
<data element_type="f32" shape="128, 1, 1, 1" offset="191276" size="512"/>
<output>
<port id="0" precision="FP32">
<dim>128</dim>
<dim>1</dim>
<dim>1</dim>
<dim>1</dim>
</port>
</output>
</layer>
<layer id="98" name="__module.model.3.conv/aten::_convolution/Convolution/fq_weights_1" type="Multiply" version="opset1">
<data auto_broadcast="numpy"/>
<input>
<port id="0" precision="FP32">
<dim>128</dim>
<dim>64</dim>
<dim>3</dim>
<dim>3</dim>
</port>
<port id="1" precision="FP32">
<dim>128</dim>
<dim>1</dim>
<dim>1</dim>
<dim>1</dim>
</port>
</input>
<output>
<port id="2" precision="FP32">
<dim>128</dim>
<dim>64</dim>
<dim>3</dim>
<dim>3</dim>
</port>
</output>
</layer>
<layer id="99" name="__module.model.3.conv/aten::_convolution/Convolution" type="Convolution" version="opset1">
<data strides="2, 2" dilations="1, 1" pads_begin="1, 1" pads_end="1, 1" auto_pad="explicit"/>
<input>
<port id="0" precision="FP32">
<dim>1</dim>
<dim>64</dim>
<dim>160</dim>
<dim>160</dim>
</port>
<port id="1" precision="FP32">
<dim>128</dim>
<dim>64</dim>
<dim>3</dim>
<dim>3</dim>
</port>
</input>
<output>
<port id="2" precision="FP32">
<dim>1</dim>
<dim>128</dim>
<dim>80</dim>
<dim>80</dim>
</port>
</output>
</layer>
<layer id="100" name="__module.model.3.conv/aten::_convolution/Reshape" type="Const" version="opset1">
<data element_type="f32" shape="1, 128, 1, 1" offset="191788" size="512"/>
<output>
<port id="0" precision="FP32">
<dim>1</dim>
<dim>128</dim>
<dim>1</dim>
<dim>1</dim>
</port>
</output>
</layer>
<layer id="101" name="__module.model.3.conv/aten::_convolution/Add" type="Add" version="opset1">
<data auto_broadcast="numpy"/>
<input>
<port id="0" precision="FP32">
<dim>1</dim>
<dim>128</dim>
<dim>80</dim>
<dim>80</dim>
</port>
<port id="1" precision="FP32">
<dim>1</dim>
<dim>128</dim>
<dim>1</dim>
<dim>1</dim>
</port>
</input>
<output>
<port id="2" precision="FP32" names="171_1">
<dim>1</dim>
<dim>128</dim>
<dim>80</dim>
<dim>80</dim>
</port>
</output>
</layer>
<layer id="102" name="__module.model.22.cv3.2.1.act/aten::silu_/Swish_6" type="Swish" version="opset4">
<input>
<port id="0" precision="FP32">
<dim>1</dim>
<dim>128</dim>
<dim>80</dim>
<dim>80</dim>
</port>
</input>
<output>
<port id="1" precision="FP32" names="171,input.25">
<dim>1</dim>
<dim>128</dim>
<dim>80</dim>
<dim>80</dim>
</port>
</output>
</layer>
<layer id="103" name="__module.model.22.cv3.2.1.act/aten::silu_/Swish_6/fq_output_0/input_low" type="Const" version="opset1">
<data element_type="f32" shape="" offset="192300" size="4"/>
<output>
<port id="0" precision="FP32"/>
</output>
</layer>
<layer id="104" name="__module.model.22.cv3.2.1.act/aten::silu_/Swish_6/fq_output_0/input_high" type="Const" version="opset1">
<data element_type="f32" shape="" offset="192304" size="4"/>
<output>
<port id="0" precision="FP32"/>
</output>
</layer>
<layer id="105" name="__module.model.22.cv3.2.1.act/aten::silu_/Swish_6/fq_output_0/output_low" type="Const" version="opset1">
<data element_type="f32" shape="" offset="192300" size="4"/>
<output>
<port id="0" precision="FP32"/>
</output>
</layer>
<layer id="106" name="__module.model.22.cv3.2.1.act/aten::silu_/Swish_6/fq_output_0/output_high" type="Const" version="opset1">
<data element_type="f32" shape="" offset="192304" size="4"/>
<output>
<port id="0" precision="FP32"/>
</output>
</layer>
<layer id="107" name="__module.model.22.cv3.2.1.act/aten::silu_/Swish_6/fq_output_0" type="FakeQuantize" version="opset1">
<data levels="256" auto_broadcast="numpy"/>
<input>
<port id="0" precision="FP32">
<dim>1</dim>
<dim>128</dim>
<dim>80</dim>
<dim>80</dim>
</port>
<port id="1" precision="FP32"/>
<port id="2" precision="FP32"/>
<port id="3" precision="FP32"/>
<port id="4" precision="FP32"/>
</input>
<output>
<port id="5" precision="FP32">
<dim>1</dim>
<dim>128</dim>
<dim>80</dim>
<dim>80</dim>
</port>
</output>
</layer>
<layer id="108" name="Constant_372543" type="Const" version="opset1">
<data element_type="i8" shape="128, 128, 1, 1" offset="192308" size="16384"/>
<output>
<port id="0" precision="I8">
<dim>128</dim>
<dim>128</dim>
<dim>1</dim>
<dim>1</dim>
</port>
</output>
</layer>
<layer id="109" name="Convert_372544" type="Convert" version="opset1">
<data destination_type="f32"/>
<input>
<port id="0" precision="I8">
<dim>128</dim>
<dim>128</dim>
<dim>1</dim>
<dim>1</dim>
</port>
</input>
<output>
<port id="1" precision="FP32">
<dim>128</dim>
<dim>128</dim>
<dim>1</dim>
<dim>1</dim>
</port>
</output>
</layer>
<layer id="110" name="Constant_372545" type="Const" version="opset1">
<data element_type="f32" shape="128, 1, 1, 1" offset="208692" size="512"/>
<output>
<port id="0" precision="FP32">
<dim>128</dim>
<dim>1</dim>
<dim>1</dim>
<dim>1</dim>
</port>
</output>
</layer>
<layer id="111" name="__module.model.4.cv1.conv/aten::_convolution/Convolution/fq_weights_1" type="Multiply" version="opset1">
<data auto_broadcast="numpy"/>
<input>
<port id="0" precision="FP32">
<dim>128</dim>
<dim>128</dim>
<dim>1</dim>
<dim>1</dim>
</port>
<port id="1" precision="FP32">
<dim>128</dim>
<dim>1</dim>
<dim>1</dim>
<dim>1</dim>
</port>
</input>
<output>
<port id="2" precision="FP32">
<dim>128</dim>
<dim>128</dim>
<dim>1</dim>
<dim>1</dim>
</port>
</output>
</layer>
<layer id="112" name="__module.model.4.cv1.conv/aten::_convolution/Convolution" type="Convolution" version="opset1">
<data strides="1, 1" dilations="1, 1" pads_begin="0, 0" pads_end="0, 0" auto_pad="explicit"/>
<input>
<port id="0" precision="FP32">
<dim>1</dim>
<dim>128</dim>
<dim>80</dim>
<dim>80</dim>
</port>
<port id="1" precision="FP32">
<dim>128</dim>
<dim>128</dim>
<dim>1</dim>
<dim>1</dim>
</port>
</input>
<output>
<port id="2" precision="FP32">
<dim>1</dim>
<dim>128</dim>
<dim>80</dim>
<dim>80</dim>
</port>
</output>
</layer>
<layer id="113" name="__module.model.4.cv1.conv/aten::_convolution/Reshape" type="Const" version="opset1">
<data element_type="f32" shape="1, 128, 1, 1" offset="209204" size="512"/>
<output>
<port id="0" precision="FP32">
<dim>1</dim>
<dim>128</dim>
<dim>1</dim>
<dim>1</dim>
</port>
</output>
</layer>
<layer id="114" name="__module.model.4.cv1.conv/aten::_convolution/Add" type="Add" version="opset1">
<data auto_broadcast="numpy"/>
<input>
<port id="0" precision="FP32">
<dim>1</dim>
<dim>128</dim>
<dim>80</dim>
<dim>80</dim>
</port>
<port id="1" precision="FP32">
<dim>1</dim>
<dim>128</dim>
<dim>1</dim>
<dim>1</dim>
</port>
</input>
<output>
<port id="2" precision="FP32" names="191_1">
<dim>1</dim>
<dim>128</dim>
<dim>80</dim>
<dim>80</dim>
</port>
</output>
</layer>
<layer id="115" name="__module.model.22.cv3.2.1.act/aten::silu_/Swish_7" type="Swish" version="opset4">
<input>
<port id="0" precision="FP32">
<dim>1</dim>
<dim>128</dim>
<dim>80</dim>
<dim>80</dim>
</port>
</input>
<output>
<port id="1" precision="FP32" names="191,input.29">
<dim>1</dim>
<dim>128</dim>
<dim>80</dim>
<dim>80</dim>
</port>
</output>
</layer>
<layer id="116" name="__module.model.22.cv3.2.1.act/aten::silu_/Swish_7/fq_output_0/input_low" type="Const" version="opset1">
<data element_type="f32" shape="" offset="209716" size="4"/>
<output>
<port id="0" precision="FP32"/>
</output>
</layer>
<layer id="117" name="__module.model.22.cv3.2.1.act/aten::silu_/Swish_7/fq_output_0/input_high" type="Const" version="opset1">
<data element_type="f32" shape="" offset="209720" size="4"/>
<output>
<port id="0" precision="FP32"/>
</output>
</layer>
<layer id="118" name="__module.model.22.cv3.2.1.act/aten::silu_/Swish_7/fq_output_0/output_low" type="Const" version="opset1">
<data element_type="f32" shape="" offset="209716" size="4"/>
<output>
<port id="0" precision="FP32"/>
</output>
</layer>
<layer id="119" name="__module.model.22.cv3.2.1.act/aten::silu_/Swish_7/fq_output_0/output_high" type="Const" version="opset1">
<data element_type="f32" shape="" offset="209720" size="4"/>
<output>
<port id="0" precision="FP32"/>
</output>
</layer>
<layer id="120" name="__module.model.22.cv3.2.1.act/aten::silu_/Swish_7/fq_output_0" type="FakeQuantize" version="opset1">
<data levels="256" auto_broadcast="numpy"/>
<input>
<port id="0" precision="FP32">
<dim>1</dim>
<dim>128</dim>
<dim>80</dim>
<dim>80</dim>
</port>
<port id="1" precision="FP32"/>
<port id="2" precision="FP32"/>
<port id="3" precision="FP32"/>
<port id="4" precision="FP32"/>
</input>
<output>
<port id="5" precision="FP32">
<dim>1</dim>
<dim>128</dim>
<dim>80</dim>
<dim>80</dim>
</port>
</output>
</layer>
<layer id="121" name="177" type="Const" version="opset1">
<data element_type="i64" shape="" offset="91904" size="8"/>
<output>
<port id="0" precision="I64" names="177"/>
</output>
</layer>
<layer id="122" name="Constant_510" type="Const" version="opset1">
<data element_type="i64" shape="2" offset="209724" size="16"/>
<output>
<port id="0" precision="I64">
<dim>2</dim>
</port>
</output>
</layer>
<layer id="123" name="__module.model.4/aten::split_with_sizes/VariadicSplit" type="VariadicSplit" version="opset1">
<input>
<port id="0" precision="FP32">
<dim>1</dim>
<dim>128</dim>
<dim>80</dim>
<dim>80</dim>
</port>
<port id="1" precision="I64"/>
<port id="2" precision="I64">
<dim>2</dim>
</port>
</input>
<output>
<port id="3" precision="FP32" names="195">
<dim>1</dim>
<dim>64</dim>
<dim>80</dim>
<dim>80</dim>
</port>
<port id="4" precision="FP32" names="196,input.31">
<dim>1</dim>
<dim>64</dim>
<dim>80</dim>
<dim>80</dim>
</port>
</output>
</layer>
<layer id="124" name="Constant_372547" type="Const" version="opset1">
<data element_type="i8" shape="64, 64, 3, 3" offset="209740" size="36864"/>
<output>
<port id="0" precision="I8">
<dim>64</dim>
<dim>64</dim>
<dim>3</dim>
<dim>3</dim>
</port>
</output>
</layer>
<layer id="125" name="Convert_372548" type="Convert" version="opset1">
<data destination_type="f32"/>
<input>
<port id="0" precision="I8">
<dim>64</dim>
<dim>64</dim>
<dim>3</dim>
<dim>3</dim>
</port>
</input>
<output>
<port id="1" precision="FP32">
<dim>64</dim>
<dim>64</dim>
<dim>3</dim>
<dim>3</dim>
</port>
</output>
</layer>
<layer id="126" name="Constant_372549" type="Const" version="opset1">
<data element_type="f32" shape="64, 1, 1, 1" offset="246604" size="256"/>
<output>
<port id="0" precision="FP32">
<dim>64</dim>
<dim>1</dim>
<dim>1</dim>
<dim>1</dim>
</port>
</output>
</layer>
<layer id="127" name="__module.model.4.m.0.cv1.conv/aten::_convolution/Convolution/fq_weights_1" type="Multiply" version="opset1">
<data auto_broadcast="numpy"/>
<input>
<port id="0" precision="FP32">
<dim>64</dim>
<dim>64</dim>
<dim>3</dim>
<dim>3</dim>
</port>
<port id="1" precision="FP32">
<dim>64</dim>
<dim>1</dim>
<dim>1</dim>
<dim>1</dim>
</port>
</input>
<output>
<port id="2" precision="FP32">
<dim>64</dim>
<dim>64</dim>
<dim>3</dim>
<dim>3</dim>
</port>
</output>
</layer>
<layer id="128" name="__module.model.4.m.0.cv1.conv/aten::_convolution/Convolution" type="Convolution" version="opset1">
<data strides="1, 1" dilations="1, 1" pads_begin="1, 1" pads_end="1, 1" auto_pad="explicit"/>
<input>
<port id="0" precision="FP32">
<dim>1</dim>
<dim>64</dim>
<dim>80</dim>
<dim>80</dim>
</port>
<port id="1" precision="FP32">
<dim>64</dim>
<dim>64</dim>
<dim>3</dim>
<dim>3</dim>
</port>
</input>
<output>
<port id="2" precision="FP32">
<dim>1</dim>
<dim>64</dim>
<dim>80</dim>
<dim>80</dim>
</port>
</output>
</layer>
<layer id="129" name="__module.model.4.m.0.cv1.conv/aten::_convolution/Reshape" type="Const" version="opset1">
<data element_type="f32" shape="1, 64, 1, 1" offset="246860" size="256"/>
<output>
<port id="0" precision="FP32">
<dim>1</dim>
<dim>64</dim>
<dim>1</dim>
<dim>1</dim>
</port>
</output>
</layer>
<layer id="130" name="__module.model.4.m.0.cv1.conv/aten::_convolution/Add" type="Add" version="opset1">
<data auto_broadcast="numpy"/>
<input>
<port id="0" precision="FP32">
<dim>1</dim>
<dim>64</dim>
<dim>80</dim>
<dim>80</dim>
</port>
<port id="1" precision="FP32">
<dim>1</dim>
<dim>64</dim>
<dim>1</dim>
<dim>1</dim>
</port>
</input>
<output>
<port id="2" precision="FP32" names="206_1">
<dim>1</dim>
<dim>64</dim>
<dim>80</dim>
<dim>80</dim>
</port>
</output>
</layer>
<layer id="131" name="__module.model.22.cv3.2.1.act/aten::silu_/Swish_8" type="Swish" version="opset4">
<input>
<port id="0" precision="FP32">
<dim>1</dim>
<dim>64</dim>
<dim>80</dim>
<dim>80</dim>
</port>
</input>
<output>
<port id="1" precision="FP32" names="206,input.33">
<dim>1</dim>
<dim>64</dim>
<dim>80</dim>
<dim>80</dim>
</port>
</output>
</layer>
<layer id="132" name="__module.model.22.cv3.2.1.act/aten::silu_/Swish_8/fq_output_0/input_low" type="Const" version="opset1">
<data element_type="f32" shape="" offset="247116" size="4"/>
<output>
<port id="0" precision="FP32"/>
</output>
</layer>
<layer id="133" name="__module.model.22.cv3.2.1.act/aten::silu_/Swish_8/fq_output_0/input_high" type="Const" version="opset1">
<data element_type="f32" shape="" offset="247120" size="4"/>
<output>
<port id="0" precision="FP32"/>
</output>
</layer>
<layer id="134" name="__module.model.22.cv3.2.1.act/aten::silu_/Swish_8/fq_output_0/output_low" type="Const" version="opset1">
<data element_type="f32" shape="" offset="247116" size="4"/>
<output>
<port id="0" precision="FP32"/>
</output>
</layer>
<layer id="135" name="__module.model.22.cv3.2.1.act/aten::silu_/Swish_8/fq_output_0/output_high" type="Const" version="opset1">
<data element_type="f32" shape="" offset="247120" size="4"/>
<output>
<port id="0" precision="FP32"/>
</output>
</layer>
<layer id="136" name="__module.model.22.cv3.2.1.act/aten::silu_/Swish_8/fq_output_0" type="FakeQuantize" version="opset1">
<data levels="256" auto_broadcast="numpy"/>
<input>
<port id="0" precision="FP32">
<dim>1</dim>
<dim>64</dim>
<dim>80</dim>
<dim>80</dim>
</port>
<port id="1" precision="FP32"/>
<port id="2" precision="FP32"/>
<port id="3" precision="FP32"/>
<port id="4" precision="FP32"/>
</input>
<output>
<port id="5" precision="FP32">
<dim>1</dim>
<dim>64</dim>
<dim>80</dim>
<dim>80</dim>
</port>
</output>
</layer>
<layer id="137" name="Constant_372551" type="Const" version="opset1">
<data element_type="i8" shape="64, 64, 3, 3" offset="247124" size="36864"/>
<output>
<port id="0" precision="I8">
<dim>64</dim>
<dim>64</dim>
<dim>3</dim>
<dim>3</dim>
</port>
</output>
</layer>
<layer id="138" name="Convert_372552" type="Convert" version="opset1">
<data destination_type="f32"/>
<input>
<port id="0" precision="I8">
<dim>64</dim>
<dim>64</dim>
<dim>3</dim>
<dim>3</dim>
</port>
</input>
<output>
<port id="1" precision="FP32">
<dim>64</dim>
<dim>64</dim>
<dim>3</dim>
<dim>3</dim>
</port>
</output>
</layer>
<layer id="139" name="Constant_372553" type="Const" version="opset1">
<data element_type="f32" shape="64, 1, 1, 1" offset="283988" size="256"/>
<output>
<port id="0" precision="FP32">
<dim>64</dim>
<dim>1</dim>
<dim>1</dim>
<dim>1</dim>
</port>
</output>
</layer>
<layer id="140" name="__module.model.4.m.0.cv2.conv/aten::_convolution/Convolution/fq_weights_1" type="Multiply" version="opset1">
<data auto_broadcast="numpy"/>
<input>
<port id="0" precision="FP32">
<dim>64</dim>
<dim>64</dim>
<dim>3</dim>
<dim>3</dim>
</port>
<port id="1" precision="FP32">
<dim>64</dim>
<dim>1</dim>
<dim>1</dim>
<dim>1</dim>
</port>
</input>
<output>
<port id="2" precision="FP32">
<dim>64</dim>
<dim>64</dim>
<dim>3</dim>
<dim>3</dim>
</port>
</output>
</layer>
<layer id="141" name="__module.model.4.m.0.cv2.conv/aten::_convolution/Convolution" type="Convolution" version="opset1">
<data strides="1, 1" dilations="1, 1" pads_begin="1, 1" pads_end="1, 1" auto_pad="explicit"/>
<input>
<port id="0" precision="FP32">
<dim>1</dim>
<dim>64</dim>
<dim>80</dim>
<dim>80</dim>
</port>
<port id="1" precision="FP32">
<dim>64</dim>
<dim>64</dim>
<dim>3</dim>
<dim>3</dim>
</port>
</input>
<output>
<port id="2" precision="FP32">
<dim>1</dim>
<dim>64</dim>
<dim>80</dim>
<dim>80</dim>
</port>
</output>
</layer>
<layer id="142" name="__module.model.4.m.0.cv2.conv/aten::_convolution/Reshape" type="Const" version="opset1">
<data element_type="f32" shape="1, 64, 1, 1" offset="284244" size="256"/>
<output>
<port id="0" precision="FP32">
<dim>1</dim>
<dim>64</dim>
<dim>1</dim>
<dim>1</dim>
</port>
</output>
</layer>
<layer id="143" name="__module.model.4.m.0.cv2.conv/aten::_convolution/Add" type="Add" version="opset1">
<data auto_broadcast="numpy"/>
<input>
<port id="0" precision="FP32">
<dim>1</dim>
<dim>64</dim>
<dim>80</dim>
<dim>80</dim>
</port>
<port id="1" precision="FP32">
<dim>1</dim>
<dim>64</dim>
<dim>1</dim>
<dim>1</dim>
</port>
</input>
<output>
<port id="2" precision="FP32" names="215_1">
<dim>1</dim>
<dim>64</dim>
<dim>80</dim>
<dim>80</dim>
</port>
</output>
</layer>
<layer id="144" name="__module.model.22.cv3.2.1.act/aten::silu_/Swish_9" type="Swish" version="opset4">
<input>
<port id="0" precision="FP32">
<dim>1</dim>
<dim>64</dim>
<dim>80</dim>
<dim>80</dim>
</port>
</input>
<output>
<port id="1" precision="FP32" names="215,input.37">
<dim>1</dim>
<dim>64</dim>
<dim>80</dim>
<dim>80</dim>
</port>
</output>
</layer>
<layer id="145" name="__module.model.22.cv3.2.1.act/aten::silu_/Swish_9/fq_output_0/input_low" type="Const" version="opset1">
<data element_type="f32" shape="" offset="284500" size="4"/>
<output>
<port id="0" precision="FP32"/>
</output>
</layer>
<layer id="146" name="__module.model.22.cv3.2.1.act/aten::silu_/Swish_9/fq_output_0/input_high" type="Const" version="opset1">
<data element_type="f32" shape="" offset="284504" size="4"/>
<output>
<port id="0" precision="FP32"/>
</output>
</layer>
<layer id="147" name="__module.model.22.cv3.2.1.act/aten::silu_/Swish_9/fq_output_0/output_low" type="Const" version="opset1">
<data element_type="f32" shape="" offset="284500" size="4"/>
<output>
<port id="0" precision="FP32"/>
</output>
</layer>
<layer id="148" name="__module.model.22.cv3.2.1.act/aten::silu_/Swish_9/fq_output_0/output_high" type="Const" version="opset1">
<data element_type="f32" shape="" offset="284504" size="4"/>
<output>
<port id="0" precision="FP32"/>
</output>
</layer>
<layer id="149" name="__module.model.22.cv3.2.1.act/aten::silu_/Swish_9/fq_output_0" type="FakeQuantize" version="opset1">
<data levels="256" auto_broadcast="numpy"/>
<input>
<port id="0" precision="FP32">
<dim>1</dim>
<dim>64</dim>
<dim>80</dim>
<dim>80</dim>
</port>
<port id="1" precision="FP32"/>
<port id="2" precision="FP32"/>
<port id="3" precision="FP32"/>
<port id="4" precision="FP32"/>
</input>
<output>
<port id="5" precision="FP32">
<dim>1</dim>
<dim>64</dim>
<dim>80</dim>
<dim>80</dim>
</port>
</output>
</layer>
<layer id="150" name="__module.model.4.m.0/aten::add/Add" type="Add" version="opset1">
<data auto_broadcast="numpy"/>
<input>
<port id="0" precision="FP32">
<dim>1</dim>
<dim>64</dim>
<dim>80</dim>
<dim>80</dim>
</port>
<port id="1" precision="FP32">
<dim>1</dim>
<dim>64</dim>
<dim>80</dim>
<dim>80</dim>
</port>
</input>
<output>
<port id="2" precision="FP32" names="217,input.39">
<dim>1</dim>
<dim>64</dim>
<dim>80</dim>
<dim>80</dim>
</port>
</output>
</layer>
<layer id="151" name="__module.model.4.m.0/aten::add/Add/fq_output_0/input_low" type="Const" version="opset1">
<data element_type="f32" shape="" offset="209716" size="4"/>
<output>
<port id="0" precision="FP32"/>
</output>
</layer>
<layer id="152" name="__module.model.4.m.0/aten::add/Add/fq_output_0/input_high" type="Const" version="opset1">
<data element_type="f32" shape="" offset="209720" size="4"/>
<output>
<port id="0" precision="FP32"/>
</output>
</layer>
<layer id="153" name="__module.model.4.m.0/aten::add/Add/fq_output_0/output_low" type="Const" version="opset1">
<data element_type="f32" shape="" offset="209716" size="4"/>
<output>
<port id="0" precision="FP32"/>
</output>
</layer>
<layer id="154" name="__module.model.4.m.0/aten::add/Add/fq_output_0/output_high" type="Const" version="opset1">
<data element_type="f32" shape="" offset="209720" size="4"/>
<output>
<port id="0" precision="FP32"/>
</output>
</layer>
<layer id="155" name="__module.model.4.m.0/aten::add/Add/fq_output_0" type="FakeQuantize" version="opset1">
<data levels="256" auto_broadcast="numpy"/>
<input>
<port id="0" precision="FP32">
<dim>1</dim>
<dim>64</dim>
<dim>80</dim>
<dim>80</dim>
</port>
<port id="1" precision="FP32"/>
<port id="2" precision="FP32"/>
<port id="3" precision="FP32"/>
<port id="4" precision="FP32"/>
</input>
<output>
<port id="5" precision="FP32">
<dim>1</dim>
<dim>64</dim>
<dim>80</dim>
<dim>80</dim>
</port>
</output>
</layer>
<layer id="156" name="Constant_372555" type="Const" version="opset1">
<data element_type="i8" shape="64, 64, 3, 3" offset="284508" size="36864"/>
<output>
<port id="0" precision="I8">
<dim>64</dim>
<dim>64</dim>
<dim>3</dim>
<dim>3</dim>
</port>
</output>
</layer>
<layer id="157" name="Convert_372556" type="Convert" version="opset1">
<data destination_type="f32"/>
<input>
<port id="0" precision="I8">
<dim>64</dim>
<dim>64</dim>
<dim>3</dim>
<dim>3</dim>
</port>
</input>
<output>
<port id="1" precision="FP32">
<dim>64</dim>
<dim>64</dim>
<dim>3</dim>
<dim>3</dim>
</port>
</output>
</layer>
<layer id="158" name="Constant_372557" type="Const" version="opset1">
<data element_type="f32" shape="64, 1, 1, 1" offset="321372" size="256"/>
<output>
<port id="0" precision="FP32">
<dim>64</dim>
<dim>1</dim>
<dim>1</dim>
<dim>1</dim>
</port>
</output>
</layer>
<layer id="159" name="__module.model.4.m.1.cv1.conv/aten::_convolution/Convolution/fq_weights_1" type="Multiply" version="opset1">
<data auto_broadcast="numpy"/>
<input>
<port id="0" precision="FP32">
<dim>64</dim>
<dim>64</dim>
<dim>3</dim>
<dim>3</dim>
</port>
<port id="1" precision="FP32">
<dim>64</dim>
<dim>1</dim>
<dim>1</dim>
<dim>1</dim>
</port>
</input>
<output>
<port id="2" precision="FP32">
<dim>64</dim>
<dim>64</dim>
<dim>3</dim>
<dim>3</dim>
</port>
</output>
</layer>
<layer id="160" name="__module.model.4.m.1.cv1.conv/aten::_convolution/Convolution" type="Convolution" version="opset1">
<data strides="1, 1" dilations="1, 1" pads_begin="1, 1" pads_end="1, 1" auto_pad="explicit"/>
<input>
<port id="0" precision="FP32">
<dim>1</dim>
<dim>64</dim>
<dim>80</dim>
<dim>80</dim>
</port>
<port id="1" precision="FP32">
<dim>64</dim>
<dim>64</dim>
<dim>3</dim>
<dim>3</dim>
</port>
</input>
<output>
<port id="2" precision="FP32">
<dim>1</dim>
<dim>64</dim>
<dim>80</dim>
<dim>80</dim>
</port>
</output>
</layer>
<layer id="161" name="__module.model.4.m.1.cv1.conv/aten::_convolution/Reshape" type="Const" version="opset1">
<data element_type="f32" shape="1, 64, 1, 1" offset="321628" size="256"/>
<output>
<port id="0" precision="FP32">
<dim>1</dim>
<dim>64</dim>
<dim>1</dim>
<dim>1</dim>
</port>
</output>
</layer>
<layer id="162" name="__module.model.4.m.1.cv1.conv/aten::_convolution/Add" type="Add" version="opset1">
<data auto_broadcast="numpy"/>
<input>
<port id="0" precision="FP32">
<dim>1</dim>
<dim>64</dim>
<dim>80</dim>
<dim>80</dim>
</port>
<port id="1" precision="FP32">
<dim>1</dim>
<dim>64</dim>
<dim>1</dim>
<dim>1</dim>
</port>
</input>
<output>
<port id="2" precision="FP32" names="227_1">
<dim>1</dim>
<dim>64</dim>
<dim>80</dim>
<dim>80</dim>
</port>
</output>
</layer>
<layer id="163" name="__module.model.22.cv3.2.1.act/aten::silu_/Swish_10" type="Swish" version="opset4">
<input>
<port id="0" precision="FP32">
<dim>1</dim>
<dim>64</dim>
<dim>80</dim>
<dim>80</dim>
</port>
</input>
<output>
<port id="1" precision="FP32" names="227,input.41">
<dim>1</dim>
<dim>64</dim>
<dim>80</dim>
<dim>80</dim>
</port>
</output>
</layer>
<layer id="164" name="__module.model.22.cv3.2.1.act/aten::silu_/Swish_10/fq_output_0/input_low" type="Const" version="opset1">
<data element_type="f32" shape="" offset="321884" size="4"/>
<output>
<port id="0" precision="FP32"/>
</output>
</layer>
<layer id="165" name="__module.model.22.cv3.2.1.act/aten::silu_/Swish_10/fq_output_0/input_high" type="Const" version="opset1">
<data element_type="f32" shape="" offset="321888" size="4"/>
<output>
<port id="0" precision="FP32"/>
</output>
</layer>
<layer id="166" name="__module.model.22.cv3.2.1.act/aten::silu_/Swish_10/fq_output_0/output_low" type="Const" version="opset1">
<data element_type="f32" shape="" offset="321884" size="4"/>
<output>
<port id="0" precision="FP32"/>
</output>
</layer>
<layer id="167" name="__module.model.22.cv3.2.1.act/aten::silu_/Swish_10/fq_output_0/output_high" type="Const" version="opset1">
<data element_type="f32" shape="" offset="321888" size="4"/>
<output>
<port id="0" precision="FP32"/>
</output>
</layer>
<layer id="168" name="__module.model.22.cv3.2.1.act/aten::silu_/Swish_10/fq_output_0" type="FakeQuantize" version="opset1">
<data levels="256" auto_broadcast="numpy"/>
<input>
<port id="0" precision="FP32">
<dim>1</dim>
<dim>64</dim>
<dim>80</dim>
<dim>80</dim>
</port>
<port id="1" precision="FP32"/>
<port id="2" precision="FP32"/>
<port id="3" precision="FP32"/>
<port id="4" precision="FP32"/>
</input>
<output>
<port id="5" precision="FP32">
<dim>1</dim>
<dim>64</dim>
<dim>80</dim>
<dim>80</dim>
</port>
</output>
</layer>
<layer id="169" name="Constant_372559" type="Const" version="opset1">
<data element_type="i8" shape="64, 64, 3, 3" offset="321892" size="36864"/>
<output>
<port id="0" precision="I8">
<dim>64</dim>
<dim>64</dim>
<dim>3</dim>
<dim>3</dim>
</port>
</output>
</layer>
<layer id="170" name="Convert_372560" type="Convert" version="opset1">
<data destination_type="f32"/>
<input>
<port id="0" precision="I8">
<dim>64</dim>
<dim>64</dim>
<dim>3</dim>
<dim>3</dim>
</port>
</input>
<output>
<port id="1" precision="FP32">
<dim>64</dim>
<dim>64</dim>
<dim>3</dim>
<dim>3</dim>
</port>
</output>
</layer>
<layer id="171" name="Constant_372561" type="Const" version="opset1">
<data element_type="f32" shape="64, 1, 1, 1" offset="358756" size="256"/>
<output>
<port id="0" precision="FP32">
<dim>64</dim>
<dim>1</dim>
<dim>1</dim>
<dim>1</dim>
</port>
</output>
</layer>
<layer id="172" name="__module.model.4.m.1.cv2.conv/aten::_convolution/Convolution/fq_weights_1" type="Multiply" version="opset1">
<data auto_broadcast="numpy"/>
<input>
<port id="0" precision="FP32">
<dim>64</dim>
<dim>64</dim>
<dim>3</dim>
<dim>3</dim>
</port>
<port id="1" precision="FP32">
<dim>64</dim>
<dim>1</dim>
<dim>1</dim>
<dim>1</dim>
</port>
</input>
<output>
<port id="2" precision="FP32">
<dim>64</dim>
<dim>64</dim>
<dim>3</dim>
<dim>3</dim>
</port>
</output>
</layer>
<layer id="173" name="__module.model.4.m.1.cv2.conv/aten::_convolution/Convolution" type="Convolution" version="opset1">
<data strides="1, 1" dilations="1, 1" pads_begin="1, 1" pads_end="1, 1" auto_pad="explicit"/>
<input>
<port id="0" precision="FP32">
<dim>1</dim>
<dim>64</dim>
<dim>80</dim>
<dim>80</dim>
</port>
<port id="1" precision="FP32">
<dim>64</dim>
<dim>64</dim>
<dim>3</dim>
<dim>3</dim>
</port>
</input>
<output>
<port id="2" precision="FP32">
<dim>1</dim>
<dim>64</dim>
<dim>80</dim>
<dim>80</dim>
</port>
</output>
</layer>
<layer id="174" name="__module.model.4.m.1.cv2.conv/aten::_convolution/Reshape" type="Const" version="opset1">
<data element_type="f32" shape="1, 64, 1, 1" offset="359012" size="256"/>
<output>
<port id="0" precision="FP32">
<dim>1</dim>
<dim>64</dim>
<dim>1</dim>
<dim>1</dim>
</port>
</output>
</layer>
<layer id="175" name="__module.model.4.m.1.cv2.conv/aten::_convolution/Add" type="Add" version="opset1">
<data auto_broadcast="numpy"/>
<input>
<port id="0" precision="FP32">
<dim>1</dim>
<dim>64</dim>
<dim>80</dim>
<dim>80</dim>
</port>
<port id="1" precision="FP32">
<dim>1</dim>
<dim>64</dim>
<dim>1</dim>
<dim>1</dim>
</port>
</input>
<output>
<port id="2" precision="FP32" names="236_1">
<dim>1</dim>
<dim>64</dim>
<dim>80</dim>
<dim>80</dim>
</port>
</output>
</layer>
<layer id="176" name="__module.model.22.cv3.2.1.act/aten::silu_/Swish_11" type="Swish" version="opset4">
<input>
<port id="0" precision="FP32">
<dim>1</dim>
<dim>64</dim>
<dim>80</dim>
<dim>80</dim>
</port>
</input>
<output>
<port id="1" precision="FP32" names="236,input.45">
<dim>1</dim>
<dim>64</dim>
<dim>80</dim>
<dim>80</dim>
</port>
</output>
</layer>
<layer id="177" name="__module.model.22.cv3.2.1.act/aten::silu_/Swish_11/fq_output_0/input_low" type="Const" version="opset1">
<data element_type="f32" shape="" offset="359268" size="4"/>
<output>
<port id="0" precision="FP32"/>
</output>
</layer>
<layer id="178" name="__module.model.22.cv3.2.1.act/aten::silu_/Swish_11/fq_output_0/input_high" type="Const" version="opset1">
<data element_type="f32" shape="" offset="359272" size="4"/>
<output>
<port id="0" precision="FP32"/>
</output>
</layer>
<layer id="179" name="__module.model.22.cv3.2.1.act/aten::silu_/Swish_11/fq_output_0/output_low" type="Const" version="opset1">
<data element_type="f32" shape="" offset="359268" size="4"/>
<output>
<port id="0" precision="FP32"/>
</output>
</layer>
<layer id="180" name="__module.model.22.cv3.2.1.act/aten::silu_/Swish_11/fq_output_0/output_high" type="Const" version="opset1">
<data element_type="f32" shape="" offset="359272" size="4"/>
<output>
<port id="0" precision="FP32"/>
</output>
</layer>
<layer id="181" name="__module.model.22.cv3.2.1.act/aten::silu_/Swish_11/fq_output_0" type="FakeQuantize" version="opset1">
<data levels="256" auto_broadcast="numpy"/>
<input>
<port id="0" precision="FP32">
<dim>1</dim>
<dim>64</dim>
<dim>80</dim>
<dim>80</dim>
</port>
<port id="1" precision="FP32"/>
<port id="2" precision="FP32"/>
<port id="3" precision="FP32"/>
<port id="4" precision="FP32"/>
</input>
<output>
<port id="5" precision="FP32">
<dim>1</dim>
<dim>64</dim>
<dim>80</dim>
<dim>80</dim>
</port>
</output>
</layer>
<layer id="182" name="__module.model.4.m.1/aten::add/Add" type="Add" version="opset1">
<data auto_broadcast="numpy"/>
<input>
<port id="0" precision="FP32">
<dim>1</dim>
<dim>64</dim>
<dim>80</dim>
<dim>80</dim>
</port>
<port id="1" precision="FP32">
<dim>1</dim>
<dim>64</dim>
<dim>80</dim>
<dim>80</dim>
</port>
</input>
<output>
<port id="2" precision="FP32" names="238">
<dim>1</dim>
<dim>64</dim>
<dim>80</dim>
<dim>80</dim>
</port>
</output>
</layer>
<layer id="183" name="__module.model.4.m.1/aten::add/Add/fq_output_0/input_low" type="Const" version="opset1">
<data element_type="f32" shape="" offset="209716" size="4"/>
<output>
<port id="0" precision="FP32"/>
</output>
</layer>
<layer id="184" name="__module.model.4.m.1/aten::add/Add/fq_output_0/input_high" type="Const" version="opset1">
<data element_type="f32" shape="" offset="209720" size="4"/>
<output>
<port id="0" precision="FP32"/>
</output>
</layer>
<layer id="185" name="__module.model.4.m.1/aten::add/Add/fq_output_0/output_low" type="Const" version="opset1">
<data element_type="f32" shape="" offset="209716" size="4"/>
<output>
<port id="0" precision="FP32"/>
</output>
</layer>
<layer id="186" name="__module.model.4.m.1/aten::add/Add/fq_output_0/output_high" type="Const" version="opset1">
<data element_type="f32" shape="" offset="209720" size="4"/>
<output>
<port id="0" precision="FP32"/>
</output>
</layer>
<layer id="187" name="__module.model.4.m.1/aten::add/Add/fq_output_0" type="FakeQuantize" version="opset1">
<data levels="256" auto_broadcast="numpy"/>
<input>
<port id="0" precision="FP32">
<dim>1</dim>
<dim>64</dim>
<dim>80</dim>
<dim>80</dim>
</port>
<port id="1" precision="FP32"/>
<port id="2" precision="FP32"/>
<port id="3" precision="FP32"/>
<port id="4" precision="FP32"/>
</input>
<output>
<port id="5" precision="FP32">
<dim>1</dim>
<dim>64</dim>
<dim>80</dim>
<dim>80</dim>
</port>
</output>
</layer>
<layer id="188" name="__module.model.4/aten::cat/Concat" type="Concat" version="opset1">
<data axis="1"/>
<input>
<port id="0" precision="FP32">
<dim>1</dim>
<dim>64</dim>
<dim>80</dim>
<dim>80</dim>
</port>
<port id="1" precision="FP32">
<dim>1</dim>
<dim>64</dim>
<dim>80</dim>
<dim>80</dim>
</port>
<port id="2" precision="FP32">
<dim>1</dim>
<dim>64</dim>
<dim>80</dim>
<dim>80</dim>
</port>
<port id="3" precision="FP32">
<dim>1</dim>
<dim>64</dim>
<dim>80</dim>
<dim>80</dim>
</port>
</input>
<output>
<port id="4" precision="FP32" names="240,input.47">
<dim>1</dim>
<dim>256</dim>
<dim>80</dim>
<dim>80</dim>
</port>
</output>
</layer>
<layer id="189" name="Constant_372563" type="Const" version="opset1">
<data element_type="i8" shape="128, 256, 1, 1" offset="359276" size="32768"/>
<output>
<port id="0" precision="I8">
<dim>128</dim>
<dim>256</dim>
<dim>1</dim>
<dim>1</dim>
</port>
</output>
</layer>
<layer id="190" name="Convert_372564" type="Convert" version="opset1">
<data destination_type="f32"/>
<input>
<port id="0" precision="I8">
<dim>128</dim>
<dim>256</dim>
<dim>1</dim>
<dim>1</dim>
</port>
</input>
<output>
<port id="1" precision="FP32">
<dim>128</dim>
<dim>256</dim>
<dim>1</dim>
<dim>1</dim>
</port>
</output>
</layer>
<layer id="191" name="Constant_372565" type="Const" version="opset1">
<data element_type="f32" shape="128, 1, 1, 1" offset="392044" size="512"/>
<output>
<port id="0" precision="FP32">
<dim>128</dim>
<dim>1</dim>
<dim>1</dim>
<dim>1</dim>
</port>
</output>
</layer>
<layer id="192" name="__module.model.4.cv2.conv/aten::_convolution/Convolution/fq_weights_1" type="Multiply" version="opset1">
<data auto_broadcast="numpy"/>
<input>
<port id="0" precision="FP32">
<dim>128</dim>
<dim>256</dim>
<dim>1</dim>
<dim>1</dim>
</port>
<port id="1" precision="FP32">
<dim>128</dim>
<dim>1</dim>
<dim>1</dim>
<dim>1</dim>
</port>
</input>
<output>
<port id="2" precision="FP32">
<dim>128</dim>
<dim>256</dim>
<dim>1</dim>
<dim>1</dim>
</port>
</output>
</layer>
<layer id="193" name="__module.model.4.cv2.conv/aten::_convolution/Convolution" type="Convolution" version="opset1">
<data strides="1, 1" dilations="1, 1" pads_begin="0, 0" pads_end="0, 0" auto_pad="explicit"/>
<input>
<port id="0" precision="FP32">
<dim>1</dim>
<dim>256</dim>
<dim>80</dim>
<dim>80</dim>
</port>
<port id="1" precision="FP32">
<dim>128</dim>
<dim>256</dim>
<dim>1</dim>
<dim>1</dim>
</port>
</input>
<output>
<port id="2" precision="FP32">
<dim>1</dim>
<dim>128</dim>
<dim>80</dim>
<dim>80</dim>
</port>
</output>
</layer>
<layer id="194" name="__module.model.4.cv2.conv/aten::_convolution/Reshape" type="Const" version="opset1">
<data element_type="f32" shape="1, 128, 1, 1" offset="392556" size="512"/>
<output>
<port id="0" precision="FP32">
<dim>1</dim>
<dim>128</dim>
<dim>1</dim>
<dim>1</dim>
</port>
</output>
</layer>
<layer id="195" name="__module.model.4.cv2.conv/aten::_convolution/Add" type="Add" version="opset1">
<data auto_broadcast="numpy"/>
<input>
<port id="0" precision="FP32">
<dim>1</dim>
<dim>128</dim>
<dim>80</dim>
<dim>80</dim>
</port>
<port id="1" precision="FP32">
<dim>1</dim>
<dim>128</dim>
<dim>1</dim>
<dim>1</dim>
</port>
</input>
<output>
<port id="2" precision="FP32" names="248_1">
<dim>1</dim>
<dim>128</dim>
<dim>80</dim>
<dim>80</dim>
</port>
</output>
</layer>
<layer id="196" name="__module.model.22.cv3.2.1.act/aten::silu_/Swish_12" type="Swish" version="opset4">
<input>
<port id="0" precision="FP32">
<dim>1</dim>
<dim>128</dim>
<dim>80</dim>
<dim>80</dim>
</port>
</input>
<output>
<port id="1" precision="FP32" names="248,input.49">
<dim>1</dim>
<dim>128</dim>
<dim>80</dim>
<dim>80</dim>
</port>
</output>
</layer>
<layer id="197" name="__module.model.22.cv3.2.1.act/aten::silu_/Swish_12/fq_output_0/input_low" type="Const" version="opset1">
<data element_type="f32" shape="" offset="393068" size="4"/>
<output>
<port id="0" precision="FP32"/>
</output>
</layer>
<layer id="198" name="__module.model.22.cv3.2.1.act/aten::silu_/Swish_12/fq_output_0/input_high" type="Const" version="opset1">
<data element_type="f32" shape="" offset="393072" size="4"/>
<output>
<port id="0" precision="FP32"/>
</output>
</layer>
<layer id="199" name="__module.model.22.cv3.2.1.act/aten::silu_/Swish_12/fq_output_0/output_low" type="Const" version="opset1">
<data element_type="f32" shape="" offset="393068" size="4"/>
<output>
<port id="0" precision="FP32"/>
</output>
</layer>
<layer id="200" name="__module.model.22.cv3.2.1.act/aten::silu_/Swish_12/fq_output_0/output_high" type="Const" version="opset1">
<data element_type="f32" shape="" offset="393072" size="4"/>
<output>
<port id="0" precision="FP32"/>
</output>
</layer>
<layer id="201" name="__module.model.22.cv3.2.1.act/aten::silu_/Swish_12/fq_output_0" type="FakeQuantize" version="opset1">
<data levels="256" auto_broadcast="numpy"/>
<input>
<port id="0" precision="FP32">
<dim>1</dim>
<dim>128</dim>
<dim>80</dim>
<dim>80</dim>
</port>
<port id="1" precision="FP32"/>
<port id="2" precision="FP32"/>
<port id="3" precision="FP32"/>
<port id="4" precision="FP32"/>
</input>
<output>
<port id="5" precision="FP32">
<dim>1</dim>
<dim>128</dim>
<dim>80</dim>
<dim>80</dim>
</port>
</output>
</layer>
<layer id="202" name="Constant_372567" type="Const" version="opset1">
<data element_type="i8" shape="256, 128, 3, 3" offset="393076" size="294912"/>
<output>
<port id="0" precision="I8">
<dim>256</dim>
<dim>128</dim>
<dim>3</dim>
<dim>3</dim>
</port>
</output>
</layer>
<layer id="203" name="Convert_372568" type="Convert" version="opset1">
<data destination_type="f32"/>
<input>
<port id="0" precision="I8">
<dim>256</dim>
<dim>128</dim>
<dim>3</dim>
<dim>3</dim>
</port>
</input>
<output>
<port id="1" precision="FP32">
<dim>256</dim>
<dim>128</dim>
<dim>3</dim>
<dim>3</dim>
</port>
</output>
</layer>
<layer id="204" name="Constant_372569" type="Const" version="opset1">
<data element_type="f32" shape="256, 1, 1, 1" offset="687988" size="1024"/>
<output>
<port id="0" precision="FP32">
<dim>256</dim>
<dim>1</dim>
<dim>1</dim>
<dim>1</dim>
</port>
</output>
</layer>
<layer id="205" name="__module.model.5.conv/aten::_convolution/Convolution/fq_weights_1" type="Multiply" version="opset1">
<data auto_broadcast="numpy"/>
<input>
<port id="0" precision="FP32">
<dim>256</dim>
<dim>128</dim>
<dim>3</dim>
<dim>3</dim>
</port>
<port id="1" precision="FP32">
<dim>256</dim>
<dim>1</dim>
<dim>1</dim>
<dim>1</dim>
</port>
</input>
<output>
<port id="2" precision="FP32">
<dim>256</dim>
<dim>128</dim>
<dim>3</dim>
<dim>3</dim>
</port>
</output>
</layer>
<layer id="206" name="__module.model.5.conv/aten::_convolution/Convolution" type="Convolution" version="opset1">
<data strides="2, 2" dilations="1, 1" pads_begin="1, 1" pads_end="1, 1" auto_pad="explicit"/>
<input>
<port id="0" precision="FP32">
<dim>1</dim>
<dim>128</dim>
<dim>80</dim>
<dim>80</dim>
</port>
<port id="1" precision="FP32">
<dim>256</dim>
<dim>128</dim>
<dim>3</dim>
<dim>3</dim>
</port>
</input>
<output>
<port id="2" precision="FP32">
<dim>1</dim>
<dim>256</dim>
<dim>40</dim>
<dim>40</dim>
</port>
</output>
</layer>
<layer id="207" name="__module.model.5.conv/aten::_convolution/Reshape" type="Const" version="opset1">
<data element_type="f32" shape="1, 256, 1, 1" offset="689012" size="1024"/>
<output>
<port id="0" precision="FP32">
<dim>1</dim>
<dim>256</dim>
<dim>1</dim>
<dim>1</dim>
</port>
</output>
</layer>
<layer id="208" name="__module.model.5.conv/aten::_convolution/Add" type="Add" version="opset1">
<data auto_broadcast="numpy"/>
<input>
<port id="0" precision="FP32">
<dim>1</dim>
<dim>256</dim>
<dim>40</dim>
<dim>40</dim>
</port>
<port id="1" precision="FP32">
<dim>1</dim>
<dim>256</dim>
<dim>1</dim>
<dim>1</dim>
</port>
</input>
<output>
<port id="2" precision="FP32" names="262_1">
<dim>1</dim>
<dim>256</dim>
<dim>40</dim>
<dim>40</dim>
</port>
</output>
</layer>
<layer id="209" name="__module.model.22.cv3.2.1.act/aten::silu_/Swish_13" type="Swish" version="opset4">
<input>
<port id="0" precision="FP32">
<dim>1</dim>
<dim>256</dim>
<dim>40</dim>
<dim>40</dim>
</port>
</input>
<output>
<port id="1" precision="FP32" names="262,input.53">
<dim>1</dim>
<dim>256</dim>
<dim>40</dim>
<dim>40</dim>
</port>
</output>
</layer>
<layer id="210" name="__module.model.22.cv3.2.1.act/aten::silu_/Swish_13/fq_output_0/input_low" type="Const" version="opset1">
<data element_type="f32" shape="" offset="690036" size="4"/>
<output>
<port id="0" precision="FP32"/>
</output>
</layer>
<layer id="211" name="__module.model.22.cv3.2.1.act/aten::silu_/Swish_13/fq_output_0/input_high" type="Const" version="opset1">
<data element_type="f32" shape="" offset="690040" size="4"/>
<output>
<port id="0" precision="FP32"/>
</output>
</layer>
<layer id="212" name="__module.model.22.cv3.2.1.act/aten::silu_/Swish_13/fq_output_0/output_low" type="Const" version="opset1">
<data element_type="f32" shape="" offset="690036" size="4"/>
<output>
<port id="0" precision="FP32"/>
</output>
</layer>
<layer id="213" name="__module.model.22.cv3.2.1.act/aten::silu_/Swish_13/fq_output_0/output_high" type="Const" version="opset1">
<data element_type="f32" shape="" offset="690040" size="4"/>
<output>
<port id="0" precision="FP32"/>
</output>
</layer>
<layer id="214" name="__module.model.22.cv3.2.1.act/aten::silu_/Swish_13/fq_output_0" type="FakeQuantize" version="opset1">
<data levels="256" auto_broadcast="numpy"/>
<input>
<port id="0" precision="FP32">
<dim>1</dim>
<dim>256</dim>
<dim>40</dim>
<dim>40</dim>
</port>
<port id="1" precision="FP32"/>
<port id="2" precision="FP32"/>
<port id="3" precision="FP32"/>
<port id="4" precision="FP32"/>
</input>
<output>
<port id="5" precision="FP32">
<dim>1</dim>
<dim>256</dim>
<dim>40</dim>
<dim>40</dim>
</port>
</output>
</layer>
<layer id="215" name="Constant_372571" type="Const" version="opset1">
<data element_type="i8" shape="256, 256, 1, 1" offset="690044" size="65536"/>
<output>
<port id="0" precision="I8">
<dim>256</dim>
<dim>256</dim>
<dim>1</dim>
<dim>1</dim>
</port>
</output>
</layer>
<layer id="216" name="Convert_372572" type="Convert" version="opset1">
<data destination_type="f32"/>
<input>
<port id="0" precision="I8">
<dim>256</dim>
<dim>256</dim>
<dim>1</dim>
<dim>1</dim>
</port>
</input>
<output>
<port id="1" precision="FP32">
<dim>256</dim>
<dim>256</dim>
<dim>1</dim>
<dim>1</dim>
</port>
</output>
</layer>
<layer id="217" name="Constant_372573" type="Const" version="opset1">
<data element_type="f32" shape="256, 1, 1, 1" offset="755580" size="1024"/>
<output>
<port id="0" precision="FP32">
<dim>256</dim>
<dim>1</dim>
<dim>1</dim>
<dim>1</dim>
</port>
</output>
</layer>
<layer id="218" name="__module.model.6.cv1.conv/aten::_convolution/Convolution/fq_weights_1" type="Multiply" version="opset1">
<data auto_broadcast="numpy"/>
<input>
<port id="0" precision="FP32">
<dim>256</dim>
<dim>256</dim>
<dim>1</dim>
<dim>1</dim>
</port>
<port id="1" precision="FP32">
<dim>256</dim>
<dim>1</dim>
<dim>1</dim>
<dim>1</dim>
</port>
</input>
<output>
<port id="2" precision="FP32">
<dim>256</dim>
<dim>256</dim>
<dim>1</dim>
<dim>1</dim>
</port>
</output>
</layer>
<layer id="219" name="__module.model.6.cv1.conv/aten::_convolution/Convolution" type="Convolution" version="opset1">
<data strides="1, 1" dilations="1, 1" pads_begin="0, 0" pads_end="0, 0" auto_pad="explicit"/>
<input>
<port id="0" precision="FP32">
<dim>1</dim>
<dim>256</dim>
<dim>40</dim>
<dim>40</dim>
</port>
<port id="1" precision="FP32">
<dim>256</dim>
<dim>256</dim>
<dim>1</dim>
<dim>1</dim>
</port>
</input>
<output>
<port id="2" precision="FP32">
<dim>1</dim>
<dim>256</dim>
<dim>40</dim>
<dim>40</dim>
</port>
</output>
</layer>
<layer id="220" name="__module.model.6.cv1.conv/aten::_convolution/Reshape" type="Const" version="opset1">
<data element_type="f32" shape="1, 256, 1, 1" offset="756604" size="1024"/>
<output>
<port id="0" precision="FP32">
<dim>1</dim>
<dim>256</dim>
<dim>1</dim>
<dim>1</dim>
</port>
</output>
</layer>
<layer id="221" name="__module.model.6.cv1.conv/aten::_convolution/Add" type="Add" version="opset1">
<data auto_broadcast="numpy"/>
<input>
<port id="0" precision="FP32">
<dim>1</dim>
<dim>256</dim>
<dim>40</dim>
<dim>40</dim>
</port>
<port id="1" precision="FP32">
<dim>1</dim>
<dim>256</dim>
<dim>1</dim>
<dim>1</dim>
</port>
</input>
<output>
<port id="2" precision="FP32" names="282_1">
<dim>1</dim>
<dim>256</dim>
<dim>40</dim>
<dim>40</dim>
</port>
</output>
</layer>
<layer id="222" name="__module.model.22.cv3.2.1.act/aten::silu_/Swish_14" type="Swish" version="opset4">
<input>
<port id="0" precision="FP32">
<dim>1</dim>
<dim>256</dim>
<dim>40</dim>
<dim>40</dim>
</port>
</input>
<output>
<port id="1" precision="FP32" names="282,input.57">
<dim>1</dim>
<dim>256</dim>
<dim>40</dim>
<dim>40</dim>
</port>
</output>
</layer>
<layer id="223" name="__module.model.22.cv3.2.1.act/aten::silu_/Swish_14/fq_output_0/input_low" type="Const" version="opset1">
<data element_type="f32" shape="" offset="757628" size="4"/>
<output>
<port id="0" precision="FP32"/>
</output>
</layer>
<layer id="224" name="__module.model.22.cv3.2.1.act/aten::silu_/Swish_14/fq_output_0/input_high" type="Const" version="opset1">
<data element_type="f32" shape="" offset="757632" size="4"/>
<output>
<port id="0" precision="FP32"/>
</output>
</layer>
<layer id="225" name="__module.model.22.cv3.2.1.act/aten::silu_/Swish_14/fq_output_0/output_low" type="Const" version="opset1">
<data element_type="f32" shape="" offset="757628" size="4"/>
<output>
<port id="0" precision="FP32"/>
</output>
</layer>
<layer id="226" name="__module.model.22.cv3.2.1.act/aten::silu_/Swish_14/fq_output_0/output_high" type="Const" version="opset1">
<data element_type="f32" shape="" offset="757632" size="4"/>
<output>
<port id="0" precision="FP32"/>
</output>
</layer>
<layer id="227" name="__module.model.22.cv3.2.1.act/aten::silu_/Swish_14/fq_output_0" type="FakeQuantize" version="opset1">
<data levels="256" auto_broadcast="numpy"/>
<input>
<port id="0" precision="FP32">
<dim>1</dim>
<dim>256</dim>
<dim>40</dim>
<dim>40</dim>
</port>
<port id="1" precision="FP32"/>
<port id="2" precision="FP32"/>
<port id="3" precision="FP32"/>
<port id="4" precision="FP32"/>
</input>
<output>
<port id="5" precision="FP32">
<dim>1</dim>
<dim>256</dim>
<dim>40</dim>
<dim>40</dim>
</port>
</output>
</layer>
<layer id="228" name="268" type="Const" version="opset1">
<data element_type="i64" shape="" offset="91904" size="8"/>
<output>
<port id="0" precision="I64" names="268"/>
</output>
</layer>
<layer id="229" name="Constant_898" type="Const" version="opset1">
<data element_type="i64" shape="2" offset="757636" size="16"/>
<output>
<port id="0" precision="I64">
<dim>2</dim>
</port>
</output>
</layer>
<layer id="230" name="__module.model.6/aten::split_with_sizes/VariadicSplit" type="VariadicSplit" version="opset1">
<input>
<port id="0" precision="FP32">
<dim>1</dim>
<dim>256</dim>
<dim>40</dim>
<dim>40</dim>
</port>
<port id="1" precision="I64"/>
<port id="2" precision="I64">
<dim>2</dim>
</port>
</input>
<output>
<port id="3" precision="FP32" names="286">
<dim>1</dim>
<dim>128</dim>
<dim>40</dim>
<dim>40</dim>
</port>
<port id="4" precision="FP32" names="287,input.59">
<dim>1</dim>
<dim>128</dim>
<dim>40</dim>
<dim>40</dim>
</port>
</output>
</layer>
<layer id="231" name="Constant_372575" type="Const" version="opset1">
<data element_type="i8" shape="128, 128, 3, 3" offset="757652" size="147456"/>
<output>
<port id="0" precision="I8">
<dim>128</dim>
<dim>128</dim>
<dim>3</dim>
<dim>3</dim>
</port>
</output>
</layer>
<layer id="232" name="Convert_372576" type="Convert" version="opset1">
<data destination_type="f32"/>
<input>
<port id="0" precision="I8">
<dim>128</dim>
<dim>128</dim>
<dim>3</dim>
<dim>3</dim>
</port>
</input>
<output>
<port id="1" precision="FP32">
<dim>128</dim>
<dim>128</dim>
<dim>3</dim>
<dim>3</dim>
</port>
</output>
</layer>
<layer id="233" name="Constant_372577" type="Const" version="opset1">
<data element_type="f32" shape="128, 1, 1, 1" offset="905108" size="512"/>
<output>
<port id="0" precision="FP32">
<dim>128</dim>
<dim>1</dim>
<dim>1</dim>
<dim>1</dim>
</port>
</output>
</layer>
<layer id="234" name="__module.model.6.m.0.cv1.conv/aten::_convolution/Convolution/fq_weights_1" type="Multiply" version="opset1">
<data auto_broadcast="numpy"/>
<input>
<port id="0" precision="FP32">
<dim>128</dim>
<dim>128</dim>
<dim>3</dim>
<dim>3</dim>
</port>
<port id="1" precision="FP32">
<dim>128</dim>
<dim>1</dim>
<dim>1</dim>
<dim>1</dim>
</port>
</input>
<output>
<port id="2" precision="FP32">
<dim>128</dim>
<dim>128</dim>
<dim>3</dim>
<dim>3</dim>
</port>
</output>
</layer>
<layer id="235" name="__module.model.6.m.0.cv1.conv/aten::_convolution/Convolution" type="Convolution" version="opset1">
<data strides="1, 1" dilations="1, 1" pads_begin="1, 1" pads_end="1, 1" auto_pad="explicit"/>
<input>
<port id="0" precision="FP32">
<dim>1</dim>
<dim>128</dim>
<dim>40</dim>
<dim>40</dim>
</port>
<port id="1" precision="FP32">
<dim>128</dim>
<dim>128</dim>
<dim>3</dim>
<dim>3</dim>
</port>
</input>
<output>
<port id="2" precision="FP32">
<dim>1</dim>
<dim>128</dim>
<dim>40</dim>
<dim>40</dim>
</port>
</output>
</layer>
<layer id="236" name="__module.model.6.m.0.cv1.conv/aten::_convolution/Reshape" type="Const" version="opset1">
<data element_type="f32" shape="1, 128, 1, 1" offset="905620" size="512"/>
<output>
<port id="0" precision="FP32">
<dim>1</dim>
<dim>128</dim>
<dim>1</dim>
<dim>1</dim>
</port>
</output>
</layer>
<layer id="237" name="__module.model.6.m.0.cv1.conv/aten::_convolution/Add" type="Add" version="opset1">
<data auto_broadcast="numpy"/>
<input>
<port id="0" precision="FP32">
<dim>1</dim>
<dim>128</dim>
<dim>40</dim>
<dim>40</dim>
</port>
<port id="1" precision="FP32">
<dim>1</dim>
<dim>128</dim>
<dim>1</dim>
<dim>1</dim>
</port>
</input>
<output>
<port id="2" precision="FP32" names="297_1">
<dim>1</dim>
<dim>128</dim>
<dim>40</dim>
<dim>40</dim>
</port>
</output>
</layer>
<layer id="238" name="__module.model.22.cv3.2.1.act/aten::silu_/Swish_15" type="Swish" version="opset4">
<input>
<port id="0" precision="FP32">
<dim>1</dim>
<dim>128</dim>
<dim>40</dim>
<dim>40</dim>
</port>
</input>
<output>
<port id="1" precision="FP32" names="297,input.61">
<dim>1</dim>
<dim>128</dim>
<dim>40</dim>
<dim>40</dim>
</port>
</output>
</layer>
<layer id="239" name="__module.model.22.cv3.2.1.act/aten::silu_/Swish_15/fq_output_0/input_low" type="Const" version="opset1">
<data element_type="f32" shape="" offset="906132" size="4"/>
<output>
<port id="0" precision="FP32"/>
</output>
</layer>
<layer id="240" name="__module.model.22.cv3.2.1.act/aten::silu_/Swish_15/fq_output_0/input_high" type="Const" version="opset1">
<data element_type="f32" shape="" offset="906136" size="4"/>
<output>
<port id="0" precision="FP32"/>
</output>
</layer>
<layer id="241" name="__module.model.22.cv3.2.1.act/aten::silu_/Swish_15/fq_output_0/output_low" type="Const" version="opset1">
<data element_type="f32" shape="" offset="906132" size="4"/>
<output>
<port id="0" precision="FP32"/>
</output>
</layer>
<layer id="242" name="__module.model.22.cv3.2.1.act/aten::silu_/Swish_15/fq_output_0/output_high" type="Const" version="opset1">
<data element_type="f32" shape="" offset="906136" size="4"/>
<output>
<port id="0" precision="FP32"/>
</output>
</layer>
<layer id="243" name="__module.model.22.cv3.2.1.act/aten::silu_/Swish_15/fq_output_0" type="FakeQuantize" version="opset1">
<data levels="256" auto_broadcast="numpy"/>
<input>
<port id="0" precision="FP32">
<dim>1</dim>
<dim>128</dim>
<dim>40</dim>
<dim>40</dim>
</port>
<port id="1" precision="FP32"/>
<port id="2" precision="FP32"/>
<port id="3" precision="FP32"/>
<port id="4" precision="FP32"/>
</input>
<output>
<port id="5" precision="FP32">
<dim>1</dim>
<dim>128</dim>
<dim>40</dim>
<dim>40</dim>
</port>
</output>
</layer>
<layer id="244" name="Constant_372579" type="Const" version="opset1">
<data element_type="i8" shape="128, 128, 3, 3" offset="906140" size="147456"/>
<output>
<port id="0" precision="I8">
<dim>128</dim>
<dim>128</dim>
<dim>3</dim>
<dim>3</dim>
</port>
</output>
</layer>
<layer id="245" name="Convert_372580" type="Convert" version="opset1">
<data destination_type="f32"/>
<input>
<port id="0" precision="I8">
<dim>128</dim>
<dim>128</dim>
<dim>3</dim>
<dim>3</dim>
</port>
</input>
<output>
<port id="1" precision="FP32">
<dim>128</dim>
<dim>128</dim>
<dim>3</dim>
<dim>3</dim>
</port>
</output>
</layer>
<layer id="246" name="Constant_372581" type="Const" version="opset1">
<data element_type="f32" shape="128, 1, 1, 1" offset="1053596" size="512"/>
<output>
<port id="0" precision="FP32">
<dim>128</dim>
<dim>1</dim>
<dim>1</dim>
<dim>1</dim>
</port>
</output>
</layer>
<layer id="247" name="__module.model.6.m.0.cv2.conv/aten::_convolution/Convolution/fq_weights_1" type="Multiply" version="opset1">
<data auto_broadcast="numpy"/>
<input>
<port id="0" precision="FP32">
<dim>128</dim>
<dim>128</dim>
<dim>3</dim>
<dim>3</dim>
</port>
<port id="1" precision="FP32">
<dim>128</dim>
<dim>1</dim>
<dim>1</dim>
<dim>1</dim>
</port>
</input>
<output>
<port id="2" precision="FP32">
<dim>128</dim>
<dim>128</dim>
<dim>3</dim>
<dim>3</dim>
</port>
</output>
</layer>
<layer id="248" name="__module.model.6.m.0.cv2.conv/aten::_convolution/Convolution" type="Convolution" version="opset1">
<data strides="1, 1" dilations="1, 1" pads_begin="1, 1" pads_end="1, 1" auto_pad="explicit"/>
<input>
<port id="0" precision="FP32">
<dim>1</dim>
<dim>128</dim>
<dim>40</dim>
<dim>40</dim>
</port>
<port id="1" precision="FP32">
<dim>128</dim>
<dim>128</dim>
<dim>3</dim>
<dim>3</dim>
</port>
</input>
<output>
<port id="2" precision="FP32">
<dim>1</dim>
<dim>128</dim>
<dim>40</dim>
<dim>40</dim>
</port>
</output>
</layer>
<layer id="249" name="__module.model.6.m.0.cv2.conv/aten::_convolution/Reshape" type="Const" version="opset1">
<data element_type="f32" shape="1, 128, 1, 1" offset="1054108" size="512"/>
<output>
<port id="0" precision="FP32">
<dim>1</dim>
<dim>128</dim>
<dim>1</dim>
<dim>1</dim>
</port>
</output>
</layer>
<layer id="250" name="__module.model.6.m.0.cv2.conv/aten::_convolution/Add" type="Add" version="opset1">
<data auto_broadcast="numpy"/>
<input>
<port id="0" precision="FP32">
<dim>1</dim>
<dim>128</dim>
<dim>40</dim>
<dim>40</dim>
</port>
<port id="1" precision="FP32">
<dim>1</dim>
<dim>128</dim>
<dim>1</dim>
<dim>1</dim>
</port>
</input>
<output>
<port id="2" precision="FP32" names="306_1">
<dim>1</dim>
<dim>128</dim>
<dim>40</dim>
<dim>40</dim>
</port>
</output>
</layer>
<layer id="251" name="__module.model.22.cv3.2.1.act/aten::silu_/Swish_16" type="Swish" version="opset4">
<input>
<port id="0" precision="FP32">
<dim>1</dim>
<dim>128</dim>
<dim>40</dim>
<dim>40</dim>
</port>
</input>
<output>
<port id="1" precision="FP32" names="306,input.65">
<dim>1</dim>
<dim>128</dim>
<dim>40</dim>
<dim>40</dim>
</port>
</output>
</layer>
<layer id="252" name="__module.model.22.cv3.2.1.act/aten::silu_/Swish_16/fq_output_0/input_low" type="Const" version="opset1">
<data element_type="f32" shape="" offset="87280" size="4"/>
<output>
<port id="0" precision="FP32"/>
</output>
</layer>
<layer id="253" name="__module.model.22.cv3.2.1.act/aten::silu_/Swish_16/fq_output_0/input_high" type="Const" version="opset1">
<data element_type="f32" shape="" offset="1054620" size="4"/>
<output>
<port id="0" precision="FP32"/>
</output>
</layer>
<layer id="254" name="__module.model.22.cv3.2.1.act/aten::silu_/Swish_16/fq_output_0/output_low" type="Const" version="opset1">
<data element_type="f32" shape="" offset="87280" size="4"/>
<output>
<port id="0" precision="FP32"/>
</output>
</layer>
<layer id="255" name="__module.model.22.cv3.2.1.act/aten::silu_/Swish_16/fq_output_0/output_high" type="Const" version="opset1">
<data element_type="f32" shape="" offset="1054620" size="4"/>
<output>
<port id="0" precision="FP32"/>
</output>
</layer>
<layer id="256" name="__module.model.22.cv3.2.1.act/aten::silu_/Swish_16/fq_output_0" type="FakeQuantize" version="opset1">
<data levels="256" auto_broadcast="numpy"/>
<input>
<port id="0" precision="FP32">
<dim>1</dim>
<dim>128</dim>
<dim>40</dim>
<dim>40</dim>
</port>
<port id="1" precision="FP32"/>
<port id="2" precision="FP32"/>
<port id="3" precision="FP32"/>
<port id="4" precision="FP32"/>
</input>
<output>
<port id="5" precision="FP32">
<dim>1</dim>
<dim>128</dim>
<dim>40</dim>
<dim>40</dim>
</port>
</output>
</layer>
<layer id="257" name="__module.model.6.m.0/aten::add/Add" type="Add" version="opset1">
<data auto_broadcast="numpy"/>
<input>
<port id="0" precision="FP32">
<dim>1</dim>
<dim>128</dim>
<dim>40</dim>
<dim>40</dim>
</port>
<port id="1" precision="FP32">
<dim>1</dim>
<dim>128</dim>
<dim>40</dim>
<dim>40</dim>
</port>
</input>
<output>
<port id="2" precision="FP32" names="308,input.67">
<dim>1</dim>
<dim>128</dim>
<dim>40</dim>
<dim>40</dim>
</port>
</output>
</layer>
<layer id="258" name="__module.model.6.m.0/aten::add/Add/fq_output_0/input_low" type="Const" version="opset1">
<data element_type="f32" shape="" offset="757628" size="4"/>
<output>
<port id="0" precision="FP32"/>
</output>
</layer>
<layer id="259" name="__module.model.6.m.0/aten::add/Add/fq_output_0/input_high" type="Const" version="opset1">
<data element_type="f32" shape="" offset="757632" size="4"/>
<output>
<port id="0" precision="FP32"/>
</output>
</layer>
<layer id="260" name="__module.model.6.m.0/aten::add/Add/fq_output_0/output_low" type="Const" version="opset1">
<data element_type="f32" shape="" offset="757628" size="4"/>
<output>
<port id="0" precision="FP32"/>
</output>
</layer>
<layer id="261" name="__module.model.6.m.0/aten::add/Add/fq_output_0/output_high" type="Const" version="opset1">
<data element_type="f32" shape="" offset="757632" size="4"/>
<output>
<port id="0" precision="FP32"/>
</output>
</layer>
<layer id="262" name="__module.model.6.m.0/aten::add/Add/fq_output_0" type="FakeQuantize" version="opset1">
<data levels="256" auto_broadcast="numpy"/>
<input>
<port id="0" precision="FP32">
<dim>1</dim>
<dim>128</dim>
<dim>40</dim>
<dim>40</dim>
</port>
<port id="1" precision="FP32"/>
<port id="2" precision="FP32"/>
<port id="3" precision="FP32"/>
<port id="4" precision="FP32"/>
</input>
<output>
<port id="5" precision="FP32">
<dim>1</dim>
<dim>128</dim>
<dim>40</dim>
<dim>40</dim>
</port>
</output>
</layer>
<layer id="263" name="Constant_372583" type="Const" version="opset1">
<data element_type="i8" shape="128, 128, 3, 3" offset="1054624" size="147456"/>
<output>
<port id="0" precision="I8">
<dim>128</dim>
<dim>128</dim>
<dim>3</dim>
<dim>3</dim>
</port>
</output>
</layer>
<layer id="264" name="Convert_372584" type="Convert" version="opset1">
<data destination_type="f32"/>
<input>
<port id="0" precision="I8">
<dim>128</dim>
<dim>128</dim>
<dim>3</dim>
<dim>3</dim>
</port>
</input>
<output>
<port id="1" precision="FP32">
<dim>128</dim>
<dim>128</dim>
<dim>3</dim>
<dim>3</dim>
</port>
</output>
</layer>
<layer id="265" name="Constant_372585" type="Const" version="opset1">
<data element_type="f32" shape="128, 1, 1, 1" offset="1202080" size="512"/>
<output>
<port id="0" precision="FP32">
<dim>128</dim>
<dim>1</dim>
<dim>1</dim>
<dim>1</dim>
</port>
</output>
</layer>
<layer id="266" name="__module.model.6.m.1.cv1.conv/aten::_convolution/Convolution/fq_weights_1" type="Multiply" version="opset1">
<data auto_broadcast="numpy"/>
<input>
<port id="0" precision="FP32">
<dim>128</dim>
<dim>128</dim>
<dim>3</dim>
<dim>3</dim>
</port>
<port id="1" precision="FP32">
<dim>128</dim>
<dim>1</dim>
<dim>1</dim>
<dim>1</dim>
</port>
</input>
<output>
<port id="2" precision="FP32">
<dim>128</dim>
<dim>128</dim>
<dim>3</dim>
<dim>3</dim>
</port>
</output>
</layer>
<layer id="267" name="__module.model.6.m.1.cv1.conv/aten::_convolution/Convolution" type="Convolution" version="opset1">
<data strides="1, 1" dilations="1, 1" pads_begin="1, 1" pads_end="1, 1" auto_pad="explicit"/>
<input>
<port id="0" precision="FP32">
<dim>1</dim>
<dim>128</dim>
<dim>40</dim>
<dim>40</dim>
</port>
<port id="1" precision="FP32">
<dim>128</dim>
<dim>128</dim>
<dim>3</dim>
<dim>3</dim>
</port>
</input>
<output>
<port id="2" precision="FP32">
<dim>1</dim>
<dim>128</dim>
<dim>40</dim>
<dim>40</dim>
</port>
</output>
</layer>
<layer id="268" name="__module.model.6.m.1.cv1.conv/aten::_convolution/Reshape" type="Const" version="opset1">
<data element_type="f32" shape="1, 128, 1, 1" offset="1202592" size="512"/>
<output>
<port id="0" precision="FP32">
<dim>1</dim>
<dim>128</dim>
<dim>1</dim>
<dim>1</dim>
</port>
</output>
</layer>
<layer id="269" name="__module.model.6.m.1.cv1.conv/aten::_convolution/Add" type="Add" version="opset1">
<data auto_broadcast="numpy"/>
<input>
<port id="0" precision="FP32">
<dim>1</dim>
<dim>128</dim>
<dim>40</dim>
<dim>40</dim>
</port>
<port id="1" precision="FP32">
<dim>1</dim>
<dim>128</dim>
<dim>1</dim>
<dim>1</dim>
</port>
</input>
<output>
<port id="2" precision="FP32" names="318_1">
<dim>1</dim>
<dim>128</dim>
<dim>40</dim>
<dim>40</dim>
</port>
</output>
</layer>
<layer id="270" name="__module.model.22.cv3.2.1.act/aten::silu_/Swish_17" type="Swish" version="opset4">
<input>
<port id="0" precision="FP32">
<dim>1</dim>
<dim>128</dim>
<dim>40</dim>
<dim>40</dim>
</port>
</input>
<output>
<port id="1" precision="FP32" names="318,input.69">
<dim>1</dim>
<dim>128</dim>
<dim>40</dim>
<dim>40</dim>
</port>
</output>
</layer>
<layer id="271" name="__module.model.22.cv3.2.1.act/aten::silu_/Swish_17/fq_output_0/input_low" type="Const" version="opset1">
<data element_type="f32" shape="" offset="1203104" size="4"/>
<output>
<port id="0" precision="FP32"/>
</output>
</layer>
<layer id="272" name="__module.model.22.cv3.2.1.act/aten::silu_/Swish_17/fq_output_0/input_high" type="Const" version="opset1">
<data element_type="f32" shape="" offset="1203108" size="4"/>
<output>
<port id="0" precision="FP32"/>
</output>
</layer>
<layer id="273" name="__module.model.22.cv3.2.1.act/aten::silu_/Swish_17/fq_output_0/output_low" type="Const" version="opset1">
<data element_type="f32" shape="" offset="1203104" size="4"/>
<output>
<port id="0" precision="FP32"/>
</output>
</layer>
<layer id="274" name="__module.model.22.cv3.2.1.act/aten::silu_/Swish_17/fq_output_0/output_high" type="Const" version="opset1">
<data element_type="f32" shape="" offset="1203108" size="4"/>
<output>
<port id="0" precision="FP32"/>
</output>
</layer>
<layer id="275" name="__module.model.22.cv3.2.1.act/aten::silu_/Swish_17/fq_output_0" type="FakeQuantize" version="opset1">
<data levels="256" auto_broadcast="numpy"/>
<input>
<port id="0" precision="FP32">
<dim>1</dim>
<dim>128</dim>
<dim>40</dim>
<dim>40</dim>
</port>
<port id="1" precision="FP32"/>
<port id="2" precision="FP32"/>
<port id="3" precision="FP32"/>
<port id="4" precision="FP32"/>
</input>
<output>
<port id="5" precision="FP32">
<dim>1</dim>
<dim>128</dim>
<dim>40</dim>
<dim>40</dim>
</port>
</output>
</layer>
<layer id="276" name="Constant_372587" type="Const" version="opset1">
<data element_type="i8" shape="128, 128, 3, 3" offset="1203112" size="147456"/>
<output>
<port id="0" precision="I8">
<dim>128</dim>
<dim>128</dim>
<dim>3</dim>
<dim>3</dim>
</port>
</output>
</layer>
<layer id="277" name="Convert_372588" type="Convert" version="opset1">
<data destination_type="f32"/>
<input>
<port id="0" precision="I8">
<dim>128</dim>
<dim>128</dim>
<dim>3</dim>
<dim>3</dim>
</port>
</input>
<output>
<port id="1" precision="FP32">
<dim>128</dim>
<dim>128</dim>
<dim>3</dim>
<dim>3</dim>
</port>
</output>
</layer>
<layer id="278" name="Constant_372589" type="Const" version="opset1">
<data element_type="f32" shape="128, 1, 1, 1" offset="1350568" size="512"/>
<output>
<port id="0" precision="FP32">
<dim>128</dim>
<dim>1</dim>
<dim>1</dim>
<dim>1</dim>
</port>
</output>
</layer>
<layer id="279" name="__module.model.6.m.1.cv2.conv/aten::_convolution/Convolution/fq_weights_1" type="Multiply" version="opset1">
<data auto_broadcast="numpy"/>
<input>
<port id="0" precision="FP32">
<dim>128</dim>
<dim>128</dim>
<dim>3</dim>
<dim>3</dim>
</port>
<port id="1" precision="FP32">
<dim>128</dim>
<dim>1</dim>
<dim>1</dim>
<dim>1</dim>
</port>
</input>
<output>
<port id="2" precision="FP32">
<dim>128</dim>
<dim>128</dim>
<dim>3</dim>
<dim>3</dim>
</port>
</output>
</layer>
<layer id="280" name="__module.model.6.m.1.cv2.conv/aten::_convolution/Convolution" type="Convolution" version="opset1">
<data strides="1, 1" dilations="1, 1" pads_begin="1, 1" pads_end="1, 1" auto_pad="explicit"/>
<input>
<port id="0" precision="FP32">
<dim>1</dim>
<dim>128</dim>
<dim>40</dim>
<dim>40</dim>
</port>
<port id="1" precision="FP32">
<dim>128</dim>
<dim>128</dim>
<dim>3</dim>
<dim>3</dim>
</port>
</input>
<output>
<port id="2" precision="FP32">
<dim>1</dim>
<dim>128</dim>
<dim>40</dim>
<dim>40</dim>
</port>
</output>
</layer>
<layer id="281" name="__module.model.6.m.1.cv2.conv/aten::_convolution/Reshape" type="Const" version="opset1">
<data element_type="f32" shape="1, 128, 1, 1" offset="1351080" size="512"/>
<output>
<port id="0" precision="FP32">
<dim>1</dim>
<dim>128</dim>
<dim>1</dim>
<dim>1</dim>
</port>
</output>
</layer>
<layer id="282" name="__module.model.6.m.1.cv2.conv/aten::_convolution/Add" type="Add" version="opset1">
<data auto_broadcast="numpy"/>
<input>
<port id="0" precision="FP32">
<dim>1</dim>
<dim>128</dim>
<dim>40</dim>
<dim>40</dim>
</port>
<port id="1" precision="FP32">
<dim>1</dim>
<dim>128</dim>
<dim>1</dim>
<dim>1</dim>
</port>
</input>
<output>
<port id="2" precision="FP32" names="327_1">
<dim>1</dim>
<dim>128</dim>
<dim>40</dim>
<dim>40</dim>
</port>
</output>
</layer>
<layer id="283" name="__module.model.22.cv3.2.1.act/aten::silu_/Swish_18" type="Swish" version="opset4">
<input>
<port id="0" precision="FP32">
<dim>1</dim>
<dim>128</dim>
<dim>40</dim>
<dim>40</dim>
</port>
</input>
<output>
<port id="1" precision="FP32" names="327,input.73">
<dim>1</dim>
<dim>128</dim>
<dim>40</dim>
<dim>40</dim>
</port>
</output>
</layer>
<layer id="284" name="__module.model.22.cv3.2.1.act/aten::silu_/Swish_18/fq_output_0/input_low" type="Const" version="opset1">
<data element_type="f32" shape="" offset="1351592" size="4"/>
<output>
<port id="0" precision="FP32"/>
</output>
</layer>
<layer id="285" name="__module.model.22.cv3.2.1.act/aten::silu_/Swish_18/fq_output_0/input_high" type="Const" version="opset1">
<data element_type="f32" shape="" offset="1351596" size="4"/>
<output>
<port id="0" precision="FP32"/>
</output>
</layer>
<layer id="286" name="__module.model.22.cv3.2.1.act/aten::silu_/Swish_18/fq_output_0/output_low" type="Const" version="opset1">
<data element_type="f32" shape="" offset="1351592" size="4"/>
<output>
<port id="0" precision="FP32"/>
</output>
</layer>
<layer id="287" name="__module.model.22.cv3.2.1.act/aten::silu_/Swish_18/fq_output_0/output_high" type="Const" version="opset1">
<data element_type="f32" shape="" offset="1351596" size="4"/>
<output>
<port id="0" precision="FP32"/>
</output>
</layer>
<layer id="288" name="__module.model.22.cv3.2.1.act/aten::silu_/Swish_18/fq_output_0" type="FakeQuantize" version="opset1">
<data levels="256" auto_broadcast="numpy"/>
<input>
<port id="0" precision="FP32">
<dim>1</dim>
<dim>128</dim>
<dim>40</dim>
<dim>40</dim>
</port>
<port id="1" precision="FP32"/>
<port id="2" precision="FP32"/>
<port id="3" precision="FP32"/>
<port id="4" precision="FP32"/>
</input>
<output>
<port id="5" precision="FP32">
<dim>1</dim>
<dim>128</dim>
<dim>40</dim>
<dim>40</dim>
</port>
</output>
</layer>
<layer id="289" name="__module.model.6.m.1/aten::add/Add" type="Add" version="opset1">
<data auto_broadcast="numpy"/>
<input>
<port id="0" precision="FP32">
<dim>1</dim>
<dim>128</dim>
<dim>40</dim>
<dim>40</dim>
</port>
<port id="1" precision="FP32">
<dim>1</dim>
<dim>128</dim>
<dim>40</dim>
<dim>40</dim>
</port>
</input>
<output>
<port id="2" precision="FP32" names="329">
<dim>1</dim>
<dim>128</dim>
<dim>40</dim>
<dim>40</dim>
</port>
</output>
</layer>
<layer id="290" name="__module.model.6.m.1/aten::add/Add/fq_output_0/input_low" type="Const" version="opset1">
<data element_type="f32" shape="" offset="757628" size="4"/>
<output>
<port id="0" precision="FP32"/>
</output>
</layer>
<layer id="291" name="__module.model.6.m.1/aten::add/Add/fq_output_0/input_high" type="Const" version="opset1">
<data element_type="f32" shape="" offset="757632" size="4"/>
<output>
<port id="0" precision="FP32"/>
</output>
</layer>
<layer id="292" name="__module.model.6.m.1/aten::add/Add/fq_output_0/output_low" type="Const" version="opset1">
<data element_type="f32" shape="" offset="757628" size="4"/>
<output>
<port id="0" precision="FP32"/>
</output>
</layer>
<layer id="293" name="__module.model.6.m.1/aten::add/Add/fq_output_0/output_high" type="Const" version="opset1">
<data element_type="f32" shape="" offset="757632" size="4"/>
<output>
<port id="0" precision="FP32"/>
</output>
</layer>
<layer id="294" name="__module.model.6.m.1/aten::add/Add/fq_output_0" type="FakeQuantize" version="opset1">
<data levels="256" auto_broadcast="numpy"/>
<input>
<port id="0" precision="FP32">
<dim>1</dim>
<dim>128</dim>
<dim>40</dim>
<dim>40</dim>
</port>
<port id="1" precision="FP32"/>
<port id="2" precision="FP32"/>
<port id="3" precision="FP32"/>
<port id="4" precision="FP32"/>
</input>
<output>
<port id="5" precision="FP32">
<dim>1</dim>
<dim>128</dim>
<dim>40</dim>
<dim>40</dim>
</port>
</output>
</layer>
<layer id="295" name="__module.model.6/aten::cat/Concat" type="Concat" version="opset1">
<data axis="1"/>
<input>
<port id="0" precision="FP32">
<dim>1</dim>
<dim>128</dim>
<dim>40</dim>
<dim>40</dim>
</port>
<port id="1" precision="FP32">
<dim>1</dim>
<dim>128</dim>
<dim>40</dim>
<dim>40</dim>
</port>
<port id="2" precision="FP32">
<dim>1</dim>
<dim>128</dim>
<dim>40</dim>
<dim>40</dim>
</port>
<port id="3" precision="FP32">
<dim>1</dim>
<dim>128</dim>
<dim>40</dim>
<dim>40</dim>
</port>
</input>
<output>
<port id="4" precision="FP32" names="331,input.75">
<dim>1</dim>
<dim>512</dim>
<dim>40</dim>
<dim>40</dim>
</port>
</output>
</layer>
<layer id="296" name="Constant_372591" type="Const" version="opset1">
<data element_type="i8" shape="256, 512, 1, 1" offset="1351600" size="131072"/>
<output>
<port id="0" precision="I8">
<dim>256</dim>
<dim>512</dim>
<dim>1</dim>
<dim>1</dim>
</port>
</output>
</layer>
<layer id="297" name="Convert_372592" type="Convert" version="opset1">
<data destination_type="f32"/>
<input>
<port id="0" precision="I8">
<dim>256</dim>
<dim>512</dim>
<dim>1</dim>
<dim>1</dim>
</port>
</input>
<output>
<port id="1" precision="FP32">
<dim>256</dim>
<dim>512</dim>
<dim>1</dim>
<dim>1</dim>
</port>
</output>
</layer>
<layer id="298" name="Constant_372593" type="Const" version="opset1">
<data element_type="f32" shape="256, 1, 1, 1" offset="1482672" size="1024"/>
<output>
<port id="0" precision="FP32">
<dim>256</dim>
<dim>1</dim>
<dim>1</dim>
<dim>1</dim>
</port>
</output>
</layer>
<layer id="299" name="__module.model.6.cv2.conv/aten::_convolution/Convolution/fq_weights_1" type="Multiply" version="opset1">
<data auto_broadcast="numpy"/>
<input>
<port id="0" precision="FP32">
<dim>256</dim>
<dim>512</dim>
<dim>1</dim>
<dim>1</dim>
</port>
<port id="1" precision="FP32">
<dim>256</dim>
<dim>1</dim>
<dim>1</dim>
<dim>1</dim>
</port>
</input>
<output>
<port id="2" precision="FP32">
<dim>256</dim>
<dim>512</dim>
<dim>1</dim>
<dim>1</dim>
</port>
</output>
</layer>
<layer id="300" name="__module.model.6.cv2.conv/aten::_convolution/Convolution" type="Convolution" version="opset1">
<data strides="1, 1" dilations="1, 1" pads_begin="0, 0" pads_end="0, 0" auto_pad="explicit"/>
<input>
<port id="0" precision="FP32">
<dim>1</dim>
<dim>512</dim>
<dim>40</dim>
<dim>40</dim>
</port>
<port id="1" precision="FP32">
<dim>256</dim>
<dim>512</dim>
<dim>1</dim>
<dim>1</dim>
</port>
</input>
<output>
<port id="2" precision="FP32">
<dim>1</dim>
<dim>256</dim>
<dim>40</dim>
<dim>40</dim>
</port>
</output>
</layer>
<layer id="301" name="__module.model.6.cv2.conv/aten::_convolution/Reshape" type="Const" version="opset1">
<data element_type="f32" shape="1, 256, 1, 1" offset="1483696" size="1024"/>
<output>
<port id="0" precision="FP32">
<dim>1</dim>
<dim>256</dim>
<dim>1</dim>
<dim>1</dim>
</port>
</output>
</layer>
<layer id="302" name="__module.model.6.cv2.conv/aten::_convolution/Add" type="Add" version="opset1">
<data auto_broadcast="numpy"/>
<input>
<port id="0" precision="FP32">
<dim>1</dim>
<dim>256</dim>
<dim>40</dim>
<dim>40</dim>
</port>
<port id="1" precision="FP32">
<dim>1</dim>
<dim>256</dim>
<dim>1</dim>
<dim>1</dim>
</port>
</input>
<output>
<port id="2" precision="FP32" names="339_1">
<dim>1</dim>
<dim>256</dim>
<dim>40</dim>
<dim>40</dim>
</port>
</output>
</layer>
<layer id="303" name="__module.model.22.cv3.2.1.act/aten::silu_/Swish_19" type="Swish" version="opset4">
<input>
<port id="0" precision="FP32">
<dim>1</dim>
<dim>256</dim>
<dim>40</dim>
<dim>40</dim>
</port>
</input>
<output>
<port id="1" precision="FP32" names="339,input.77">
<dim>1</dim>
<dim>256</dim>
<dim>40</dim>
<dim>40</dim>
</port>
</output>
</layer>
<layer id="304" name="__module.model.22.cv3.2.1.act/aten::silu_/Swish_19/fq_output_0/input_low" type="Const" version="opset1">
<data element_type="f32" shape="" offset="1484720" size="4"/>
<output>
<port id="0" precision="FP32"/>
</output>
</layer>
<layer id="305" name="__module.model.22.cv3.2.1.act/aten::silu_/Swish_19/fq_output_0/input_high" type="Const" version="opset1">
<data element_type="f32" shape="" offset="1484724" size="4"/>
<output>
<port id="0" precision="FP32"/>
</output>
</layer>
<layer id="306" name="__module.model.22.cv3.2.1.act/aten::silu_/Swish_19/fq_output_0/output_low" type="Const" version="opset1">
<data element_type="f32" shape="" offset="1484720" size="4"/>
<output>
<port id="0" precision="FP32"/>
</output>
</layer>
<layer id="307" name="__module.model.22.cv3.2.1.act/aten::silu_/Swish_19/fq_output_0/output_high" type="Const" version="opset1">
<data element_type="f32" shape="" offset="1484724" size="4"/>
<output>
<port id="0" precision="FP32"/>
</output>
</layer>
<layer id="308" name="__module.model.22.cv3.2.1.act/aten::silu_/Swish_19/fq_output_0" type="FakeQuantize" version="opset1">
<data levels="256" auto_broadcast="numpy"/>
<input>
<port id="0" precision="FP32">
<dim>1</dim>
<dim>256</dim>
<dim>40</dim>
<dim>40</dim>
</port>
<port id="1" precision="FP32"/>
<port id="2" precision="FP32"/>
<port id="3" precision="FP32"/>
<port id="4" precision="FP32"/>
</input>
<output>
<port id="5" precision="FP32">
<dim>1</dim>
<dim>256</dim>
<dim>40</dim>
<dim>40</dim>
</port>
</output>
</layer>
<layer id="309" name="Constant_372595" type="Const" version="opset1">
<data element_type="i8" shape="512, 256, 3, 3" offset="1484728" size="1179648"/>
<output>
<port id="0" precision="I8">
<dim>512</dim>
<dim>256</dim>
<dim>3</dim>
<dim>3</dim>
</port>
</output>
</layer>
<layer id="310" name="Convert_372596" type="Convert" version="opset1">
<data destination_type="f32"/>
<input>
<port id="0" precision="I8">
<dim>512</dim>
<dim>256</dim>
<dim>3</dim>
<dim>3</dim>
</port>
</input>
<output>
<port id="1" precision="FP32">
<dim>512</dim>
<dim>256</dim>
<dim>3</dim>
<dim>3</dim>
</port>
</output>
</layer>
<layer id="311" name="Constant_372597" type="Const" version="opset1">
<data element_type="f32" shape="512, 1, 1, 1" offset="2664376" size="2048"/>
<output>
<port id="0" precision="FP32">
<dim>512</dim>
<dim>1</dim>
<dim>1</dim>
<dim>1</dim>
</port>
</output>
</layer>
<layer id="312" name="__module.model.7.conv/aten::_convolution/Convolution/fq_weights_1" type="Multiply" version="opset1">
<data auto_broadcast="numpy"/>
<input>
<port id="0" precision="FP32">
<dim>512</dim>
<dim>256</dim>
<dim>3</dim>
<dim>3</dim>
</port>
<port id="1" precision="FP32">
<dim>512</dim>
<dim>1</dim>
<dim>1</dim>
<dim>1</dim>
</port>
</input>
<output>
<port id="2" precision="FP32">
<dim>512</dim>
<dim>256</dim>
<dim>3</dim>
<dim>3</dim>
</port>
</output>
</layer>
<layer id="313" name="__module.model.7.conv/aten::_convolution/Convolution" type="Convolution" version="opset1">
<data strides="2, 2" dilations="1, 1" pads_begin="1, 1" pads_end="1, 1" auto_pad="explicit"/>
<input>
<port id="0" precision="FP32">
<dim>1</dim>
<dim>256</dim>
<dim>40</dim>
<dim>40</dim>
</port>
<port id="1" precision="FP32">
<dim>512</dim>
<dim>256</dim>
<dim>3</dim>
<dim>3</dim>
</port>
</input>
<output>
<port id="2" precision="FP32">
<dim>1</dim>
<dim>512</dim>
<dim>20</dim>
<dim>20</dim>
</port>
</output>
</layer>
<layer id="314" name="__module.model.7.conv/aten::_convolution/Reshape" type="Const" version="opset1">
<data element_type="f32" shape="1, 512, 1, 1" offset="2666424" size="2048"/>
<output>
<port id="0" precision="FP32">
<dim>1</dim>
<dim>512</dim>
<dim>1</dim>
<dim>1</dim>
</port>
</output>
</layer>
<layer id="315" name="__module.model.7.conv/aten::_convolution/Add" type="Add" version="opset1">
<data auto_broadcast="numpy"/>
<input>
<port id="0" precision="FP32">
<dim>1</dim>
<dim>512</dim>
<dim>20</dim>
<dim>20</dim>
</port>
<port id="1" precision="FP32">
<dim>1</dim>
<dim>512</dim>
<dim>1</dim>
<dim>1</dim>
</port>
</input>
<output>
<port id="2" precision="FP32" names="353_1">
<dim>1</dim>
<dim>512</dim>
<dim>20</dim>
<dim>20</dim>
</port>
</output>
</layer>
<layer id="316" name="__module.model.22.cv3.2.1.act/aten::silu_/Swish_20" type="Swish" version="opset4">
<input>
<port id="0" precision="FP32">
<dim>1</dim>
<dim>512</dim>
<dim>20</dim>
<dim>20</dim>
</port>
</input>
<output>
<port id="1" precision="FP32" names="353,input.81">
<dim>1</dim>
<dim>512</dim>
<dim>20</dim>
<dim>20</dim>
</port>
</output>
</layer>
<layer id="317" name="__module.model.22.cv3.2.1.act/aten::silu_/Swish_20/fq_output_0/input_low" type="Const" version="opset1">
<data element_type="f32" shape="" offset="87280" size="4"/>
<output>
<port id="0" precision="FP32"/>
</output>
</layer>
<layer id="318" name="__module.model.22.cv3.2.1.act/aten::silu_/Swish_20/fq_output_0/input_high" type="Const" version="opset1">
<data element_type="f32" shape="" offset="1054620" size="4"/>
<output>
<port id="0" precision="FP32"/>
</output>
</layer>
<layer id="319" name="__module.model.22.cv3.2.1.act/aten::silu_/Swish_20/fq_output_0/output_low" type="Const" version="opset1">
<data element_type="f32" shape="" offset="87280" size="4"/>
<output>
<port id="0" precision="FP32"/>
</output>
</layer>
<layer id="320" name="__module.model.22.cv3.2.1.act/aten::silu_/Swish_20/fq_output_0/output_high" type="Const" version="opset1">
<data element_type="f32" shape="" offset="1054620" size="4"/>
<output>
<port id="0" precision="FP32"/>
</output>
</layer>
<layer id="321" name="__module.model.22.cv3.2.1.act/aten::silu_/Swish_20/fq_output_0" type="FakeQuantize" version="opset1">
<data levels="256" auto_broadcast="numpy"/>
<input>
<port id="0" precision="FP32">
<dim>1</dim>
<dim>512</dim>
<dim>20</dim>
<dim>20</dim>
</port>
<port id="1" precision="FP32"/>
<port id="2" precision="FP32"/>
<port id="3" precision="FP32"/>
<port id="4" precision="FP32"/>
</input>
<output>
<port id="5" precision="FP32">
<dim>1</dim>
<dim>512</dim>
<dim>20</dim>
<dim>20</dim>
</port>
</output>
</layer>
<layer id="322" name="Constant_372599" type="Const" version="opset1">
<data element_type="i8" shape="512, 512, 1, 1" offset="2668472" size="262144"/>
<output>
<port id="0" precision="I8">
<dim>512</dim>
<dim>512</dim>
<dim>1</dim>
<dim>1</dim>
</port>
</output>
</layer>
<layer id="323" name="Convert_372600" type="Convert" version="opset1">
<data destination_type="f32"/>
<input>
<port id="0" precision="I8">
<dim>512</dim>
<dim>512</dim>
<dim>1</dim>
<dim>1</dim>
</port>
</input>
<output>
<port id="1" precision="FP32">
<dim>512</dim>
<dim>512</dim>
<dim>1</dim>
<dim>1</dim>
</port>
</output>
</layer>
<layer id="324" name="Constant_372601" type="Const" version="opset1">
<data element_type="f32" shape="512, 1, 1, 1" offset="2930616" size="2048"/>
<output>
<port id="0" precision="FP32">
<dim>512</dim>
<dim>1</dim>
<dim>1</dim>
<dim>1</dim>
</port>
</output>
</layer>
<layer id="325" name="__module.model.8.cv1.conv/aten::_convolution/Convolution/fq_weights_1" type="Multiply" version="opset1">
<data auto_broadcast="numpy"/>
<input>
<port id="0" precision="FP32">
<dim>512</dim>
<dim>512</dim>
<dim>1</dim>
<dim>1</dim>
</port>
<port id="1" precision="FP32">
<dim>512</dim>
<dim>1</dim>
<dim>1</dim>
<dim>1</dim>
</port>
</input>
<output>
<port id="2" precision="FP32">
<dim>512</dim>
<dim>512</dim>
<dim>1</dim>
<dim>1</dim>
</port>
</output>
</layer>
<layer id="326" name="__module.model.8.cv1.conv/aten::_convolution/Convolution" type="Convolution" version="opset1">
<data strides="1, 1" dilations="1, 1" pads_begin="0, 0" pads_end="0, 0" auto_pad="explicit"/>
<input>
<port id="0" precision="FP32">
<dim>1</dim>
<dim>512</dim>
<dim>20</dim>
<dim>20</dim>
</port>
<port id="1" precision="FP32">
<dim>512</dim>
<dim>512</dim>
<dim>1</dim>
<dim>1</dim>
</port>
</input>
<output>
<port id="2" precision="FP32">
<dim>1</dim>
<dim>512</dim>
<dim>20</dim>
<dim>20</dim>
</port>
</output>
</layer>
<layer id="327" name="__module.model.8.cv1.conv/aten::_convolution/Reshape" type="Const" version="opset1">
<data element_type="f32" shape="1, 512, 1, 1" offset="2932664" size="2048"/>
<output>
<port id="0" precision="FP32">
<dim>1</dim>
<dim>512</dim>
<dim>1</dim>
<dim>1</dim>
</port>
</output>
</layer>
<layer id="328" name="__module.model.8.cv1.conv/aten::_convolution/Add" type="Add" version="opset1">
<data auto_broadcast="numpy"/>
<input>
<port id="0" precision="FP32">
<dim>1</dim>
<dim>512</dim>
<dim>20</dim>
<dim>20</dim>
</port>
<port id="1" precision="FP32">
<dim>1</dim>
<dim>512</dim>
<dim>1</dim>
<dim>1</dim>
</port>
</input>
<output>
<port id="2" precision="FP32" names="371_1">
<dim>1</dim>
<dim>512</dim>
<dim>20</dim>
<dim>20</dim>
</port>
</output>
</layer>
<layer id="329" name="__module.model.22.cv3.2.1.act/aten::silu_/Swish_21" type="Swish" version="opset4">
<input>
<port id="0" precision="FP32">
<dim>1</dim>
<dim>512</dim>
<dim>20</dim>
<dim>20</dim>
</port>
</input>
<output>
<port id="1" precision="FP32" names="371,input.85">
<dim>1</dim>
<dim>512</dim>
<dim>20</dim>
<dim>20</dim>
</port>
</output>
</layer>
<layer id="330" name="__module.model.22.cv3.2.1.act/aten::silu_/Swish_21/fq_output_0/input_low" type="Const" version="opset1">
<data element_type="f32" shape="" offset="2934712" size="4"/>
<output>
<port id="0" precision="FP32"/>
</output>
</layer>
<layer id="331" name="__module.model.22.cv3.2.1.act/aten::silu_/Swish_21/fq_output_0/input_high" type="Const" version="opset1">
<data element_type="f32" shape="" offset="2934716" size="4"/>
<output>
<port id="0" precision="FP32"/>
</output>
</layer>
<layer id="332" name="__module.model.22.cv3.2.1.act/aten::silu_/Swish_21/fq_output_0/output_low" type="Const" version="opset1">
<data element_type="f32" shape="" offset="2934712" size="4"/>
<output>
<port id="0" precision="FP32"/>
</output>
</layer>
<layer id="333" name="__module.model.22.cv3.2.1.act/aten::silu_/Swish_21/fq_output_0/output_high" type="Const" version="opset1">
<data element_type="f32" shape="" offset="2934716" size="4"/>
<output>
<port id="0" precision="FP32"/>
</output>
</layer>
<layer id="334" name="__module.model.22.cv3.2.1.act/aten::silu_/Swish_21/fq_output_0" type="FakeQuantize" version="opset1">
<data levels="256" auto_broadcast="numpy"/>
<input>
<port id="0" precision="FP32">
<dim>1</dim>
<dim>512</dim>
<dim>20</dim>
<dim>20</dim>
</port>
<port id="1" precision="FP32"/>
<port id="2" precision="FP32"/>
<port id="3" precision="FP32"/>
<port id="4" precision="FP32"/>
</input>
<output>
<port id="5" precision="FP32">
<dim>1</dim>
<dim>512</dim>
<dim>20</dim>
<dim>20</dim>
</port>
</output>
</layer>
<layer id="335" name="359" type="Const" version="opset1">
<data element_type="i64" shape="" offset="91904" size="8"/>
<output>
<port id="0" precision="I64" names="359"/>
</output>
</layer>
<layer id="336" name="Constant_1284" type="Const" version="opset1">
<data element_type="i64" shape="2" offset="2934720" size="16"/>
<output>
<port id="0" precision="I64">
<dim>2</dim>
</port>
</output>
</layer>
<layer id="337" name="__module.model.8/aten::split_with_sizes/VariadicSplit" type="VariadicSplit" version="opset1">
<input>
<port id="0" precision="FP32">
<dim>1</dim>
<dim>512</dim>
<dim>20</dim>
<dim>20</dim>
</port>
<port id="1" precision="I64"/>
<port id="2" precision="I64">
<dim>2</dim>
</port>
</input>
<output>
<port id="3" precision="FP32" names="375">
<dim>1</dim>
<dim>256</dim>
<dim>20</dim>
<dim>20</dim>
</port>
<port id="4" precision="FP32" names="376,input.87">
<dim>1</dim>
<dim>256</dim>
<dim>20</dim>
<dim>20</dim>
</port>
</output>
</layer>
<layer id="338" name="Constant_372603" type="Const" version="opset1">
<data element_type="i8" shape="256, 256, 3, 3" offset="2934736" size="589824"/>
<output>
<port id="0" precision="I8">
<dim>256</dim>
<dim>256</dim>
<dim>3</dim>
<dim>3</dim>
</port>
</output>
</layer>
<layer id="339" name="Convert_372604" type="Convert" version="opset1">
<data destination_type="f32"/>
<input>
<port id="0" precision="I8">
<dim>256</dim>
<dim>256</dim>
<dim>3</dim>
<dim>3</dim>
</port>
</input>
<output>
<port id="1" precision="FP32">
<dim>256</dim>
<dim>256</dim>
<dim>3</dim>
<dim>3</dim>
</port>
</output>
</layer>
<layer id="340" name="Constant_372605" type="Const" version="opset1">
<data element_type="f32" shape="256, 1, 1, 1" offset="3524560" size="1024"/>
<output>
<port id="0" precision="FP32">
<dim>256</dim>
<dim>1</dim>
<dim>1</dim>
<dim>1</dim>
</port>
</output>
</layer>
<layer id="341" name="__module.model.8.m.0.cv1.conv/aten::_convolution/Convolution/fq_weights_1" type="Multiply" version="opset1">
<data auto_broadcast="numpy"/>
<input>
<port id="0" precision="FP32">
<dim>256</dim>
<dim>256</dim>
<dim>3</dim>
<dim>3</dim>
</port>
<port id="1" precision="FP32">
<dim>256</dim>
<dim>1</dim>
<dim>1</dim>
<dim>1</dim>
</port>
</input>
<output>
<port id="2" precision="FP32">
<dim>256</dim>
<dim>256</dim>
<dim>3</dim>
<dim>3</dim>
</port>
</output>
</layer>
<layer id="342" name="__module.model.8.m.0.cv1.conv/aten::_convolution/Convolution" type="Convolution" version="opset1">
<data strides="1, 1" dilations="1, 1" pads_begin="1, 1" pads_end="1, 1" auto_pad="explicit"/>
<input>
<port id="0" precision="FP32">
<dim>1</dim>
<dim>256</dim>
<dim>20</dim>
<dim>20</dim>
</port>
<port id="1" precision="FP32">
<dim>256</dim>
<dim>256</dim>
<dim>3</dim>
<dim>3</dim>
</port>
</input>
<output>
<port id="2" precision="FP32">
<dim>1</dim>
<dim>256</dim>
<dim>20</dim>
<dim>20</dim>
</port>
</output>
</layer>
<layer id="343" name="__module.model.8.m.0.cv1.conv/aten::_convolution/Reshape" type="Const" version="opset1">
<data element_type="f32" shape="1, 256, 1, 1" offset="3525584" size="1024"/>
<output>
<port id="0" precision="FP32">
<dim>1</dim>
<dim>256</dim>
<dim>1</dim>
<dim>1</dim>
</port>
</output>
</layer>
<layer id="344" name="__module.model.8.m.0.cv1.conv/aten::_convolution/Add" type="Add" version="opset1">
<data auto_broadcast="numpy"/>
<input>
<port id="0" precision="FP32">
<dim>1</dim>
<dim>256</dim>
<dim>20</dim>
<dim>20</dim>
</port>
<port id="1" precision="FP32">
<dim>1</dim>
<dim>256</dim>
<dim>1</dim>
<dim>1</dim>
</port>
</input>
<output>
<port id="2" precision="FP32" names="386_1">
<dim>1</dim>
<dim>256</dim>
<dim>20</dim>
<dim>20</dim>
</port>
</output>
</layer>
<layer id="345" name="__module.model.22.cv3.2.1.act/aten::silu_/Swish_22" type="Swish" version="opset4">
<input>
<port id="0" precision="FP32">
<dim>1</dim>
<dim>256</dim>
<dim>20</dim>
<dim>20</dim>
</port>
</input>
<output>
<port id="1" precision="FP32" names="386,input.89">
<dim>1</dim>
<dim>256</dim>
<dim>20</dim>
<dim>20</dim>
</port>
</output>
</layer>
<layer id="346" name="__module.model.22.cv3.2.1.act/aten::silu_/Swish_22/fq_output_0/input_low" type="Const" version="opset1">
<data element_type="f32" shape="" offset="87280" size="4"/>
<output>
<port id="0" precision="FP32"/>
</output>
</layer>
<layer id="347" name="__module.model.22.cv3.2.1.act/aten::silu_/Swish_22/fq_output_0/input_high" type="Const" version="opset1">
<data element_type="f32" shape="" offset="1054620" size="4"/>
<output>
<port id="0" precision="FP32"/>
</output>
</layer>
<layer id="348" name="__module.model.22.cv3.2.1.act/aten::silu_/Swish_22/fq_output_0/output_low" type="Const" version="opset1">
<data element_type="f32" shape="" offset="87280" size="4"/>
<output>
<port id="0" precision="FP32"/>
</output>
</layer>
<layer id="349" name="__module.model.22.cv3.2.1.act/aten::silu_/Swish_22/fq_output_0/output_high" type="Const" version="opset1">
<data element_type="f32" shape="" offset="1054620" size="4"/>
<output>
<port id="0" precision="FP32"/>
</output>
</layer>
<layer id="350" name="__module.model.22.cv3.2.1.act/aten::silu_/Swish_22/fq_output_0" type="FakeQuantize" version="opset1">
<data levels="256" auto_broadcast="numpy"/>
<input>
<port id="0" precision="FP32">
<dim>1</dim>
<dim>256</dim>
<dim>20</dim>
<dim>20</dim>
</port>
<port id="1" precision="FP32"/>
<port id="2" precision="FP32"/>
<port id="3" precision="FP32"/>
<port id="4" precision="FP32"/>
</input>
<output>
<port id="5" precision="FP32">
<dim>1</dim>
<dim>256</dim>
<dim>20</dim>
<dim>20</dim>
</port>
</output>
</layer>
<layer id="351" name="Constant_372607" type="Const" version="opset1">
<data element_type="i8" shape="256, 256, 3, 3" offset="3526608" size="589824"/>
<output>
<port id="0" precision="I8">
<dim>256</dim>
<dim>256</dim>
<dim>3</dim>
<dim>3</dim>
</port>
</output>
</layer>
<layer id="352" name="Convert_372608" type="Convert" version="opset1">
<data destination_type="f32"/>
<input>
<port id="0" precision="I8">
<dim>256</dim>
<dim>256</dim>
<dim>3</dim>
<dim>3</dim>
</port>
</input>
<output>
<port id="1" precision="FP32">
<dim>256</dim>
<dim>256</dim>
<dim>3</dim>
<dim>3</dim>
</port>
</output>
</layer>
<layer id="353" name="Constant_372609" type="Const" version="opset1">
<data element_type="f32" shape="256, 1, 1, 1" offset="4116432" size="1024"/>
<output>
<port id="0" precision="FP32">
<dim>256</dim>
<dim>1</dim>
<dim>1</dim>
<dim>1</dim>
</port>
</output>
</layer>
<layer id="354" name="__module.model.8.m.0.cv2.conv/aten::_convolution/Convolution/fq_weights_1" type="Multiply" version="opset1">
<data auto_broadcast="numpy"/>
<input>
<port id="0" precision="FP32">
<dim>256</dim>
<dim>256</dim>
<dim>3</dim>
<dim>3</dim>
</port>
<port id="1" precision="FP32">
<dim>256</dim>
<dim>1</dim>
<dim>1</dim>
<dim>1</dim>
</port>
</input>
<output>
<port id="2" precision="FP32">
<dim>256</dim>
<dim>256</dim>
<dim>3</dim>
<dim>3</dim>
</port>
</output>
</layer>
<layer id="355" name="__module.model.8.m.0.cv2.conv/aten::_convolution/Convolution" type="Convolution" version="opset1">
<data strides="1, 1" dilations="1, 1" pads_begin="1, 1" pads_end="1, 1" auto_pad="explicit"/>
<input>
<port id="0" precision="FP32">
<dim>1</dim>
<dim>256</dim>
<dim>20</dim>
<dim>20</dim>
</port>
<port id="1" precision="FP32">
<dim>256</dim>
<dim>256</dim>
<dim>3</dim>
<dim>3</dim>
</port>
</input>
<output>
<port id="2" precision="FP32">
<dim>1</dim>
<dim>256</dim>
<dim>20</dim>
<dim>20</dim>
</port>
</output>
</layer>
<layer id="356" name="__module.model.8.m.0.cv2.conv/aten::_convolution/Reshape" type="Const" version="opset1">
<data element_type="f32" shape="1, 256, 1, 1" offset="4117456" size="1024"/>
<output>
<port id="0" precision="FP32">
<dim>1</dim>
<dim>256</dim>
<dim>1</dim>
<dim>1</dim>
</port>
</output>
</layer>
<layer id="357" name="__module.model.8.m.0.cv2.conv/aten::_convolution/Add" type="Add" version="opset1">
<data auto_broadcast="numpy"/>
<input>
<port id="0" precision="FP32">
<dim>1</dim>
<dim>256</dim>
<dim>20</dim>
<dim>20</dim>
</port>
<port id="1" precision="FP32">
<dim>1</dim>
<dim>256</dim>
<dim>1</dim>
<dim>1</dim>
</port>
</input>
<output>
<port id="2" precision="FP32" names="395_1">
<dim>1</dim>
<dim>256</dim>
<dim>20</dim>
<dim>20</dim>
</port>
</output>
</layer>
<layer id="358" name="__module.model.22.cv3.2.1.act/aten::silu_/Swish_23" type="Swish" version="opset4">
<input>
<port id="0" precision="FP32">
<dim>1</dim>
<dim>256</dim>
<dim>20</dim>
<dim>20</dim>
</port>
</input>
<output>
<port id="1" precision="FP32" names="395,input.93">
<dim>1</dim>
<dim>256</dim>
<dim>20</dim>
<dim>20</dim>
</port>
</output>
</layer>
<layer id="359" name="__module.model.22.cv3.2.1.act/aten::silu_/Swish_23/fq_output_0/input_low" type="Const" version="opset1">
<data element_type="f32" shape="" offset="4118480" size="4"/>
<output>
<port id="0" precision="FP32"/>
</output>
</layer>
<layer id="360" name="__module.model.22.cv3.2.1.act/aten::silu_/Swish_23/fq_output_0/input_high" type="Const" version="opset1">
<data element_type="f32" shape="" offset="4118484" size="4"/>
<output>
<port id="0" precision="FP32"/>
</output>
</layer>
<layer id="361" name="__module.model.22.cv3.2.1.act/aten::silu_/Swish_23/fq_output_0/output_low" type="Const" version="opset1">
<data element_type="f32" shape="" offset="4118480" size="4"/>
<output>
<port id="0" precision="FP32"/>
</output>
</layer>
<layer id="362" name="__module.model.22.cv3.2.1.act/aten::silu_/Swish_23/fq_output_0/output_high" type="Const" version="opset1">
<data element_type="f32" shape="" offset="4118484" size="4"/>
<output>
<port id="0" precision="FP32"/>
</output>
</layer>
<layer id="363" name="__module.model.22.cv3.2.1.act/aten::silu_/Swish_23/fq_output_0" type="FakeQuantize" version="opset1">
<data levels="256" auto_broadcast="numpy"/>
<input>
<port id="0" precision="FP32">
<dim>1</dim>
<dim>256</dim>
<dim>20</dim>
<dim>20</dim>
</port>
<port id="1" precision="FP32"/>
<port id="2" precision="FP32"/>
<port id="3" precision="FP32"/>
<port id="4" precision="FP32"/>
</input>
<output>
<port id="5" precision="FP32">
<dim>1</dim>
<dim>256</dim>
<dim>20</dim>
<dim>20</dim>
</port>
</output>
</layer>
<layer id="364" name="__module.model.8.m.0/aten::add/Add" type="Add" version="opset1">
<data auto_broadcast="numpy"/>
<input>
<port id="0" precision="FP32">
<dim>1</dim>
<dim>256</dim>
<dim>20</dim>
<dim>20</dim>
</port>
<port id="1" precision="FP32">
<dim>1</dim>
<dim>256</dim>
<dim>20</dim>
<dim>20</dim>
</port>
</input>
<output>
<port id="2" precision="FP32" names="397">
<dim>1</dim>
<dim>256</dim>
<dim>20</dim>
<dim>20</dim>
</port>
</output>
</layer>
<layer id="365" name="__module.model.8.m.0/aten::add/Add/fq_output_0/input_low" type="Const" version="opset1">
<data element_type="f32" shape="" offset="2934712" size="4"/>
<output>
<port id="0" precision="FP32"/>
</output>
</layer>
<layer id="366" name="__module.model.8.m.0/aten::add/Add/fq_output_0/input_high" type="Const" version="opset1">
<data element_type="f32" shape="" offset="2934716" size="4"/>
<output>
<port id="0" precision="FP32"/>
</output>
</layer>
<layer id="367" name="__module.model.8.m.0/aten::add/Add/fq_output_0/output_low" type="Const" version="opset1">
<data element_type="f32" shape="" offset="2934712" size="4"/>
<output>
<port id="0" precision="FP32"/>
</output>
</layer>
<layer id="368" name="__module.model.8.m.0/aten::add/Add/fq_output_0/output_high" type="Const" version="opset1">
<data element_type="f32" shape="" offset="2934716" size="4"/>
<output>
<port id="0" precision="FP32"/>
</output>
</layer>
<layer id="369" name="__module.model.8.m.0/aten::add/Add/fq_output_0" type="FakeQuantize" version="opset1">
<data levels="256" auto_broadcast="numpy"/>
<input>
<port id="0" precision="FP32">
<dim>1</dim>
<dim>256</dim>
<dim>20</dim>
<dim>20</dim>
</port>
<port id="1" precision="FP32"/>
<port id="2" precision="FP32"/>
<port id="3" precision="FP32"/>
<port id="4" precision="FP32"/>
</input>
<output>
<port id="5" precision="FP32">
<dim>1</dim>
<dim>256</dim>
<dim>20</dim>
<dim>20</dim>
</port>
</output>
</layer>
<layer id="370" name="__module.model.8/aten::cat/Concat" type="Concat" version="opset1">
<data axis="1"/>
<input>
<port id="0" precision="FP32">
<dim>1</dim>
<dim>256</dim>
<dim>20</dim>
<dim>20</dim>
</port>
<port id="1" precision="FP32">
<dim>1</dim>
<dim>256</dim>
<dim>20</dim>
<dim>20</dim>
</port>
<port id="2" precision="FP32">
<dim>1</dim>
<dim>256</dim>
<dim>20</dim>
<dim>20</dim>
</port>
</input>
<output>
<port id="3" precision="FP32" names="399,input.95">
<dim>1</dim>
<dim>768</dim>
<dim>20</dim>
<dim>20</dim>
</port>
</output>
</layer>
<layer id="371" name="Constant_372611" type="Const" version="opset1">
<data element_type="i8" shape="512, 768, 1, 1" offset="4118488" size="393216"/>
<output>
<port id="0" precision="I8">
<dim>512</dim>
<dim>768</dim>
<dim>1</dim>
<dim>1</dim>
</port>
</output>
</layer>
<layer id="372" name="Convert_372612" type="Convert" version="opset1">
<data destination_type="f32"/>
<input>
<port id="0" precision="I8">
<dim>512</dim>
<dim>768</dim>
<dim>1</dim>
<dim>1</dim>
</port>
</input>
<output>
<port id="1" precision="FP32">
<dim>512</dim>
<dim>768</dim>
<dim>1</dim>
<dim>1</dim>
</port>
</output>
</layer>
<layer id="373" name="Constant_372613" type="Const" version="opset1">
<data element_type="f32" shape="512, 1, 1, 1" offset="4511704" size="2048"/>
<output>
<port id="0" precision="FP32">
<dim>512</dim>
<dim>1</dim>
<dim>1</dim>
<dim>1</dim>
</port>
</output>
</layer>
<layer id="374" name="__module.model.8.cv2.conv/aten::_convolution/Convolution/fq_weights_1" type="Multiply" version="opset1">
<data auto_broadcast="numpy"/>
<input>
<port id="0" precision="FP32">
<dim>512</dim>
<dim>768</dim>
<dim>1</dim>
<dim>1</dim>
</port>
<port id="1" precision="FP32">
<dim>512</dim>
<dim>1</dim>
<dim>1</dim>
<dim>1</dim>
</port>
</input>
<output>
<port id="2" precision="FP32">
<dim>512</dim>
<dim>768</dim>
<dim>1</dim>
<dim>1</dim>
</port>
</output>
</layer>
<layer id="375" name="__module.model.8.cv2.conv/aten::_convolution/Convolution" type="Convolution" version="opset1">
<data strides="1, 1" dilations="1, 1" pads_begin="0, 0" pads_end="0, 0" auto_pad="explicit"/>
<input>
<port id="0" precision="FP32">
<dim>1</dim>
<dim>768</dim>
<dim>20</dim>
<dim>20</dim>
</port>
<port id="1" precision="FP32">
<dim>512</dim>
<dim>768</dim>
<dim>1</dim>
<dim>1</dim>
</port>
</input>
<output>
<port id="2" precision="FP32">
<dim>1</dim>
<dim>512</dim>
<dim>20</dim>
<dim>20</dim>
</port>
</output>
</layer>
<layer id="376" name="__module.model.8.cv2.conv/aten::_convolution/Reshape" type="Const" version="opset1">
<data element_type="f32" shape="1, 512, 1, 1" offset="4513752" size="2048"/>
<output>
<port id="0" precision="FP32">
<dim>1</dim>
<dim>512</dim>
<dim>1</dim>
<dim>1</dim>
</port>
</output>
</layer>
<layer id="377" name="__module.model.8.cv2.conv/aten::_convolution/Add" type="Add" version="opset1">
<data auto_broadcast="numpy"/>
<input>
<port id="0" precision="FP32">
<dim>1</dim>
<dim>512</dim>
<dim>20</dim>
<dim>20</dim>
</port>
<port id="1" precision="FP32">
<dim>1</dim>
<dim>512</dim>
<dim>1</dim>
<dim>1</dim>
</port>
</input>
<output>
<port id="2" precision="FP32" names="407_1">
<dim>1</dim>
<dim>512</dim>
<dim>20</dim>
<dim>20</dim>
</port>
</output>
</layer>
<layer id="378" name="__module.model.22.cv3.2.1.act/aten::silu_/Swish_24" type="Swish" version="opset4">
<input>
<port id="0" precision="FP32">
<dim>1</dim>
<dim>512</dim>
<dim>20</dim>
<dim>20</dim>
</port>
</input>
<output>
<port id="1" precision="FP32" names="407,input.97">
<dim>1</dim>
<dim>512</dim>
<dim>20</dim>
<dim>20</dim>
</port>
</output>
</layer>
<layer id="379" name="__module.model.22.cv3.2.1.act/aten::silu_/Swish_24/fq_output_0/input_low" type="Const" version="opset1">
<data element_type="f32" shape="" offset="4515800" size="4"/>
<output>
<port id="0" precision="FP32"/>
</output>
</layer>
<layer id="380" name="__module.model.22.cv3.2.1.act/aten::silu_/Swish_24/fq_output_0/input_high" type="Const" version="opset1">
<data element_type="f32" shape="" offset="4515804" size="4"/>
<output>
<port id="0" precision="FP32"/>
</output>
</layer>
<layer id="381" name="__module.model.22.cv3.2.1.act/aten::silu_/Swish_24/fq_output_0/output_low" type="Const" version="opset1">
<data element_type="f32" shape="" offset="4515800" size="4"/>
<output>
<port id="0" precision="FP32"/>
</output>
</layer>
<layer id="382" name="__module.model.22.cv3.2.1.act/aten::silu_/Swish_24/fq_output_0/output_high" type="Const" version="opset1">
<data element_type="f32" shape="" offset="4515804" size="4"/>
<output>
<port id="0" precision="FP32"/>
</output>
</layer>
<layer id="383" name="__module.model.22.cv3.2.1.act/aten::silu_/Swish_24/fq_output_0" type="FakeQuantize" version="opset1">
<data levels="256" auto_broadcast="numpy"/>
<input>
<port id="0" precision="FP32">
<dim>1</dim>
<dim>512</dim>
<dim>20</dim>
<dim>20</dim>
</port>
<port id="1" precision="FP32"/>
<port id="2" precision="FP32"/>
<port id="3" precision="FP32"/>
<port id="4" precision="FP32"/>
</input>
<output>
<port id="5" precision="FP32">
<dim>1</dim>
<dim>512</dim>
<dim>20</dim>
<dim>20</dim>
</port>
</output>
</layer>
<layer id="384" name="Constant_372615" type="Const" version="opset1">
<data element_type="i8" shape="256, 512, 1, 1" offset="4515808" size="131072"/>
<output>
<port id="0" precision="I8">
<dim>256</dim>
<dim>512</dim>
<dim>1</dim>
<dim>1</dim>
</port>
</output>
</layer>
<layer id="385" name="Convert_372616" type="Convert" version="opset1">
<data destination_type="f32"/>
<input>
<port id="0" precision="I8">
<dim>256</dim>
<dim>512</dim>
<dim>1</dim>
<dim>1</dim>
</port>
</input>
<output>
<port id="1" precision="FP32">
<dim>256</dim>
<dim>512</dim>
<dim>1</dim>
<dim>1</dim>
</port>
</output>
</layer>
<layer id="386" name="Constant_372617" type="Const" version="opset1">
<data element_type="f32" shape="256, 1, 1, 1" offset="4646880" size="1024"/>
<output>
<port id="0" precision="FP32">
<dim>256</dim>
<dim>1</dim>
<dim>1</dim>
<dim>1</dim>
</port>
</output>
</layer>
<layer id="387" name="__module.model.9.cv1.conv/aten::_convolution/Convolution/fq_weights_1" type="Multiply" version="opset1">
<data auto_broadcast="numpy"/>
<input>
<port id="0" precision="FP32">
<dim>256</dim>
<dim>512</dim>
<dim>1</dim>
<dim>1</dim>
</port>
<port id="1" precision="FP32">
<dim>256</dim>
<dim>1</dim>
<dim>1</dim>
<dim>1</dim>
</port>
</input>
<output>
<port id="2" precision="FP32">
<dim>256</dim>
<dim>512</dim>
<dim>1</dim>
<dim>1</dim>
</port>
</output>
</layer>
<layer id="388" name="__module.model.9.cv1.conv/aten::_convolution/Convolution" type="Convolution" version="opset1">
<data strides="1, 1" dilations="1, 1" pads_begin="0, 0" pads_end="0, 0" auto_pad="explicit"/>
<input>
<port id="0" precision="FP32">
<dim>1</dim>
<dim>512</dim>
<dim>20</dim>
<dim>20</dim>
</port>
<port id="1" precision="FP32">
<dim>256</dim>
<dim>512</dim>
<dim>1</dim>
<dim>1</dim>
</port>
</input>
<output>
<port id="2" precision="FP32">
<dim>1</dim>
<dim>256</dim>
<dim>20</dim>
<dim>20</dim>
</port>
</output>
</layer>
<layer id="389" name="__module.model.9.cv1.conv/aten::_convolution/Reshape" type="Const" version="opset1">
<data element_type="f32" shape="1, 256, 1, 1" offset="4647904" size="1024"/>
<output>
<port id="0" precision="FP32">
<dim>1</dim>
<dim>256</dim>
<dim>1</dim>
<dim>1</dim>
</port>
</output>
</layer>
<layer id="390" name="__module.model.9.cv1.conv/aten::_convolution/Add" type="Add" version="opset1">
<data auto_broadcast="numpy"/>
<input>
<port id="0" precision="FP32">
<dim>1</dim>
<dim>256</dim>
<dim>20</dim>
<dim>20</dim>
</port>
<port id="1" precision="FP32">
<dim>1</dim>
<dim>256</dim>
<dim>1</dim>
<dim>1</dim>
</port>
</input>
<output>
<port id="2" precision="FP32" names="427,input.101">
<dim>1</dim>
<dim>256</dim>
<dim>20</dim>
<dim>20</dim>
</port>
</output>
</layer>
<layer id="391" name="__module.model.9.cv1.conv/aten::_convolution/Add/fq_output_0/input_low" type="Const" version="opset1">
<data element_type="f32" shape="" offset="4648928" size="4"/>
<output>
<port id="0" precision="FP32"/>
</output>
</layer>
<layer id="392" name="__module.model.9.cv1.conv/aten::_convolution/Add/fq_output_0/input_high" type="Const" version="opset1">
<data element_type="f32" shape="" offset="4648932" size="4"/>
<output>
<port id="0" precision="FP32"/>
</output>
</layer>
<layer id="393" name="__module.model.9.cv1.conv/aten::_convolution/Add/fq_output_0/output_low" type="Const" version="opset1">
<data element_type="f32" shape="" offset="4648928" size="4"/>
<output>
<port id="0" precision="FP32"/>
</output>
</layer>
<layer id="394" name="__module.model.9.cv1.conv/aten::_convolution/Add/fq_output_0/output_high" type="Const" version="opset1">
<data element_type="f32" shape="" offset="4648932" size="4"/>
<output>
<port id="0" precision="FP32"/>
</output>
</layer>
<layer id="395" name="__module.model.9.cv1.conv/aten::_convolution/Add/fq_output_0" type="FakeQuantize" version="opset1">
<data levels="256" auto_broadcast="numpy"/>
<input>
<port id="0" precision="FP32">
<dim>1</dim>
<dim>256</dim>
<dim>20</dim>
<dim>20</dim>
</port>
<port id="1" precision="FP32"/>
<port id="2" precision="FP32"/>
<port id="3" precision="FP32"/>
<port id="4" precision="FP32"/>
</input>
<output>
<port id="5" precision="FP32">
<dim>1</dim>
<dim>256</dim>
<dim>20</dim>
<dim>20</dim>
</port>
</output>
</layer>
<layer id="396" name="__module.model.9.m/aten::max_pool2d/MaxPool" type="MaxPool" version="opset14">
<data strides="1, 1" dilations="1, 1" pads_begin="2, 2" pads_end="2, 2" kernel="5, 5" rounding_type="floor" auto_pad="explicit" index_element_type="i64" axis="2"/>
<input>
<port id="0" precision="FP32">
<dim>1</dim>
<dim>256</dim>
<dim>20</dim>
<dim>20</dim>
</port>
</input>
<output>
<port id="1" precision="FP32" names="432,input.103">
<dim>1</dim>
<dim>256</dim>
<dim>20</dim>
<dim>20</dim>
</port>
<port id="2" precision="I64">
<dim>1</dim>
<dim>256</dim>
<dim>20</dim>
<dim>20</dim>
</port>
</output>
</layer>
<layer id="397" name="__module.model.9.m/aten::max_pool2d/MaxPool_1" type="MaxPool" version="opset14">
<data strides="1, 1" dilations="1, 1" pads_begin="2, 2" pads_end="2, 2" kernel="5, 5" rounding_type="floor" auto_pad="explicit" index_element_type="i64" axis="2"/>
<input>
<port id="0" precision="FP32">
<dim>1</dim>
<dim>256</dim>
<dim>20</dim>
<dim>20</dim>
</port>
</input>
<output>
<port id="1" precision="FP32" names="437,input.105">
<dim>1</dim>
<dim>256</dim>
<dim>20</dim>
<dim>20</dim>
</port>
<port id="2" precision="I64">
<dim>1</dim>
<dim>256</dim>
<dim>20</dim>
<dim>20</dim>
</port>
</output>
</layer>
<layer id="398" name="__module.model.9.m/aten::max_pool2d/MaxPool_2" type="MaxPool" version="opset14">
<data strides="1, 1" dilations="1, 1" pads_begin="2, 2" pads_end="2, 2" kernel="5, 5" rounding_type="floor" auto_pad="explicit" index_element_type="i64" axis="2"/>
<input>
<port id="0" precision="FP32">
<dim>1</dim>
<dim>256</dim>
<dim>20</dim>
<dim>20</dim>
</port>
</input>
<output>
<port id="1" precision="FP32" names="442">
<dim>1</dim>
<dim>256</dim>
<dim>20</dim>
<dim>20</dim>
</port>
<port id="2" precision="I64">
<dim>1</dim>
<dim>256</dim>
<dim>20</dim>
<dim>20</dim>
</port>
</output>
</layer>
<layer id="399" name="__module.model.9/aten::cat/Concat" type="Concat" version="opset1">
<data axis="1"/>
<input>
<port id="0" precision="FP32">
<dim>1</dim>
<dim>256</dim>
<dim>20</dim>
<dim>20</dim>
</port>
<port id="1" precision="FP32">
<dim>1</dim>
<dim>256</dim>
<dim>20</dim>
<dim>20</dim>
</port>
<port id="2" precision="FP32">
<dim>1</dim>
<dim>256</dim>
<dim>20</dim>
<dim>20</dim>
</port>
<port id="3" precision="FP32">
<dim>1</dim>
<dim>256</dim>
<dim>20</dim>
<dim>20</dim>
</port>
</input>
<output>
<port id="4" precision="FP32" names="444,input.107">
<dim>1</dim>
<dim>1024</dim>
<dim>20</dim>
<dim>20</dim>
</port>
</output>
</layer>
<layer id="400" name="Constant_372619" type="Const" version="opset1">
<data element_type="i8" shape="512, 1024, 1, 1" offset="4648936" size="524288"/>
<output>
<port id="0" precision="I8">
<dim>512</dim>
<dim>1024</dim>
<dim>1</dim>
<dim>1</dim>
</port>
</output>
</layer>
<layer id="401" name="Convert_372620" type="Convert" version="opset1">
<data destination_type="f32"/>
<input>
<port id="0" precision="I8">
<dim>512</dim>
<dim>1024</dim>
<dim>1</dim>
<dim>1</dim>
</port>
</input>
<output>
<port id="1" precision="FP32">
<dim>512</dim>
<dim>1024</dim>
<dim>1</dim>
<dim>1</dim>
</port>
</output>
</layer>
<layer id="402" name="Constant_372621" type="Const" version="opset1">
<data element_type="f32" shape="512, 1, 1, 1" offset="5173224" size="2048"/>
<output>
<port id="0" precision="FP32">
<dim>512</dim>
<dim>1</dim>
<dim>1</dim>
<dim>1</dim>
</port>
</output>
</layer>
<layer id="403" name="__module.model.9.cv2.conv/aten::_convolution/Convolution/fq_weights_1" type="Multiply" version="opset1">
<data auto_broadcast="numpy"/>
<input>
<port id="0" precision="FP32">
<dim>512</dim>
<dim>1024</dim>
<dim>1</dim>
<dim>1</dim>
</port>
<port id="1" precision="FP32">
<dim>512</dim>
<dim>1</dim>
<dim>1</dim>
<dim>1</dim>
</port>
</input>
<output>
<port id="2" precision="FP32">
<dim>512</dim>
<dim>1024</dim>
<dim>1</dim>
<dim>1</dim>
</port>
</output>
</layer>
<layer id="404" name="__module.model.9.cv2.conv/aten::_convolution/Convolution" type="Convolution" version="opset1">
<data strides="1, 1" dilations="1, 1" pads_begin="0, 0" pads_end="0, 0" auto_pad="explicit"/>
<input>
<port id="0" precision="FP32">
<dim>1</dim>
<dim>1024</dim>
<dim>20</dim>
<dim>20</dim>
</port>
<port id="1" precision="FP32">
<dim>512</dim>
<dim>1024</dim>
<dim>1</dim>
<dim>1</dim>
</port>
</input>
<output>
<port id="2" precision="FP32">
<dim>1</dim>
<dim>512</dim>
<dim>20</dim>
<dim>20</dim>
</port>
</output>
</layer>
<layer id="405" name="__module.model.9.cv2.conv/aten::_convolution/Reshape" type="Const" version="opset1">
<data element_type="f32" shape="1, 512, 1, 1" offset="5175272" size="2048"/>
<output>
<port id="0" precision="FP32">
<dim>1</dim>
<dim>512</dim>
<dim>1</dim>
<dim>1</dim>
</port>
</output>
</layer>
<layer id="406" name="__module.model.9.cv2.conv/aten::_convolution/Add" type="Add" version="opset1">
<data auto_broadcast="numpy"/>
<input>
<port id="0" precision="FP32">
<dim>1</dim>
<dim>512</dim>
<dim>20</dim>
<dim>20</dim>
</port>
<port id="1" precision="FP32">
<dim>1</dim>
<dim>512</dim>
<dim>1</dim>
<dim>1</dim>
</port>
</input>
<output>
<port id="2" precision="FP32" names="452_1">
<dim>1</dim>
<dim>512</dim>
<dim>20</dim>
<dim>20</dim>
</port>
</output>
</layer>
<layer id="407" name="__module.model.22.cv3.2.1.act/aten::silu_/Swish_25" type="Swish" version="opset4">
<input>
<port id="0" precision="FP32">
<dim>1</dim>
<dim>512</dim>
<dim>20</dim>
<dim>20</dim>
</port>
</input>
<output>
<port id="1" precision="FP32" names="452,input.109">
<dim>1</dim>
<dim>512</dim>
<dim>20</dim>
<dim>20</dim>
</port>
</output>
</layer>
<layer id="408" name="__module.model.22.cv3.2.1.act/aten::silu_/Swish_25/fq_output_0/input_low" type="Const" version="opset1">
<data element_type="f32" shape="" offset="5177320" size="4"/>
<output>
<port id="0" precision="FP32"/>
</output>
</layer>
<layer id="409" name="__module.model.22.cv3.2.1.act/aten::silu_/Swish_25/fq_output_0/input_high" type="Const" version="opset1">
<data element_type="f32" shape="" offset="5177324" size="4"/>
<output>
<port id="0" precision="FP32"/>
</output>
</layer>
<layer id="410" name="__module.model.22.cv3.2.1.act/aten::silu_/Swish_25/fq_output_0/output_low" type="Const" version="opset1">
<data element_type="f32" shape="" offset="5177320" size="4"/>
<output>
<port id="0" precision="FP32"/>
</output>
</layer>
<layer id="411" name="__module.model.22.cv3.2.1.act/aten::silu_/Swish_25/fq_output_0/output_high" type="Const" version="opset1">
<data element_type="f32" shape="" offset="5177324" size="4"/>
<output>
<port id="0" precision="FP32"/>
</output>
</layer>
<layer id="412" name="__module.model.22.cv3.2.1.act/aten::silu_/Swish_25/fq_output_0" type="FakeQuantize" version="opset1">
<data levels="256" auto_broadcast="numpy"/>
<input>
<port id="0" precision="FP32">
<dim>1</dim>
<dim>512</dim>
<dim>20</dim>
<dim>20</dim>
</port>
<port id="1" precision="FP32"/>
<port id="2" precision="FP32"/>
<port id="3" precision="FP32"/>
<port id="4" precision="FP32"/>
</input>
<output>
<port id="5" precision="FP32">
<dim>1</dim>
<dim>512</dim>
<dim>20</dim>
<dim>20</dim>
</port>
</output>
</layer>
<layer id="413" name="__module.model.10/aten::upsample_nearest2d/Multiply" type="Const" version="opset1">
<data element_type="f32" shape="2" offset="5177328" size="8"/>
<output>
<port id="0" precision="FP32">
<dim>2</dim>
</port>
</output>
</layer>
<layer id="414" name="Constant_1643" type="Const" version="opset1">
<data element_type="i32" shape="2" offset="5177336" size="8"/>
<output>
<port id="0" precision="I32">
<dim>2</dim>
</port>
</output>
</layer>
<layer id="415" name="__module.model.10/aten::upsample_nearest2d/Interpolate" type="Interpolate" version="opset11">
<data mode="nearest" shape_calculation_mode="scales" coordinate_transformation_mode="asymmetric" nearest_mode="floor" antialias="false" pads_begin="0, 0, 0, 0" pads_end="0, 0, 0, 0" cube_coeff="-0.75"/>
<input>
<port id="0" precision="FP32">
<dim>1</dim>
<dim>512</dim>
<dim>20</dim>
<dim>20</dim>
</port>
<port id="1" precision="FP32">
<dim>2</dim>
</port>
<port id="2" precision="I32">
<dim>2</dim>
</port>
</input>
<output>
<port id="3" precision="FP32" names="457">
<dim>1</dim>
<dim>512</dim>
<dim>40</dim>
<dim>40</dim>
</port>
</output>
</layer>
<layer id="416" name="__module.model.10/aten::upsample_nearest2d/Interpolate/fq_output_0/input_low" type="Const" version="opset1">
<data element_type="f32" shape="" offset="1484720" size="4"/>
<output>
<port id="0" precision="FP32"/>
</output>
</layer>
<layer id="417" name="__module.model.10/aten::upsample_nearest2d/Interpolate/fq_output_0/input_high" type="Const" version="opset1">
<data element_type="f32" shape="" offset="1484724" size="4"/>
<output>
<port id="0" precision="FP32"/>
</output>
</layer>
<layer id="418" name="__module.model.10/aten::upsample_nearest2d/Interpolate/fq_output_0/output_low" type="Const" version="opset1">
<data element_type="f32" shape="" offset="1484720" size="4"/>
<output>
<port id="0" precision="FP32"/>
</output>
</layer>
<layer id="419" name="__module.model.10/aten::upsample_nearest2d/Interpolate/fq_output_0/output_high" type="Const" version="opset1">
<data element_type="f32" shape="" offset="1484724" size="4"/>
<output>
<port id="0" precision="FP32"/>
</output>
</layer>
<layer id="420" name="__module.model.10/aten::upsample_nearest2d/Interpolate/fq_output_0" type="FakeQuantize" version="opset1">
<data levels="256" auto_broadcast="numpy"/>
<input>
<port id="0" precision="FP32">
<dim>1</dim>
<dim>512</dim>
<dim>40</dim>
<dim>40</dim>
</port>
<port id="1" precision="FP32"/>
<port id="2" precision="FP32"/>
<port id="3" precision="FP32"/>
<port id="4" precision="FP32"/>
</input>
<output>
<port id="5" precision="FP32">
<dim>1</dim>
<dim>512</dim>
<dim>40</dim>
<dim>40</dim>
</port>
</output>
</layer>
<layer id="421" name="__module.model.11/aten::cat/Concat" type="Concat" version="opset1">
<data axis="1"/>
<input>
<port id="0" precision="FP32">
<dim>1</dim>
<dim>512</dim>
<dim>40</dim>
<dim>40</dim>
</port>
<port id="1" precision="FP32">
<dim>1</dim>
<dim>256</dim>
<dim>40</dim>
<dim>40</dim>
</port>
</input>
<output>
<port id="2" precision="FP32" names="460,input.113">
<dim>1</dim>
<dim>768</dim>
<dim>40</dim>
<dim>40</dim>
</port>
</output>
</layer>
<layer id="422" name="Constant_372623" type="Const" version="opset1">
<data element_type="i8" shape="256, 768, 1, 1" offset="5177344" size="196608"/>
<output>
<port id="0" precision="I8">
<dim>256</dim>
<dim>768</dim>
<dim>1</dim>
<dim>1</dim>
</port>
</output>
</layer>
<layer id="423" name="Convert_372624" type="Convert" version="opset1">
<data destination_type="f32"/>
<input>
<port id="0" precision="I8">
<dim>256</dim>
<dim>768</dim>
<dim>1</dim>
<dim>1</dim>
</port>
</input>
<output>
<port id="1" precision="FP32">
<dim>256</dim>
<dim>768</dim>
<dim>1</dim>
<dim>1</dim>
</port>
</output>
</layer>
<layer id="424" name="Constant_372625" type="Const" version="opset1">
<data element_type="f32" shape="256, 1, 1, 1" offset="5373952" size="1024"/>
<output>
<port id="0" precision="FP32">
<dim>256</dim>
<dim>1</dim>
<dim>1</dim>
<dim>1</dim>
</port>
</output>
</layer>
<layer id="425" name="__module.model.12.cv1.conv/aten::_convolution/Convolution/fq_weights_1" type="Multiply" version="opset1">
<data auto_broadcast="numpy"/>
<input>
<port id="0" precision="FP32">
<dim>256</dim>
<dim>768</dim>
<dim>1</dim>
<dim>1</dim>
</port>
<port id="1" precision="FP32">
<dim>256</dim>
<dim>1</dim>
<dim>1</dim>
<dim>1</dim>
</port>
</input>
<output>
<port id="2" precision="FP32">
<dim>256</dim>
<dim>768</dim>
<dim>1</dim>
<dim>1</dim>
</port>
</output>
</layer>
<layer id="426" name="__module.model.12.cv1.conv/aten::_convolution/Convolution" type="Convolution" version="opset1">
<data strides="1, 1" dilations="1, 1" pads_begin="0, 0" pads_end="0, 0" auto_pad="explicit"/>
<input>
<port id="0" precision="FP32">
<dim>1</dim>
<dim>768</dim>
<dim>40</dim>
<dim>40</dim>
</port>
<port id="1" precision="FP32">
<dim>256</dim>
<dim>768</dim>
<dim>1</dim>
<dim>1</dim>
</port>
</input>
<output>
<port id="2" precision="FP32">
<dim>1</dim>
<dim>256</dim>
<dim>40</dim>
<dim>40</dim>
</port>
</output>
</layer>
<layer id="427" name="__module.model.12.cv1.conv/aten::_convolution/Reshape" type="Const" version="opset1">
<data element_type="f32" shape="1, 256, 1, 1" offset="5374976" size="1024"/>
<output>
<port id="0" precision="FP32">
<dim>1</dim>
<dim>256</dim>
<dim>1</dim>
…
<edge from-layer="228" from-port="0" to-layer="230" to-port="1"/>
<edge from-layer="229" from-port="0" to-layer="230" to-port="2"/>
<edge from-layer="230" from-port="4" to-layer="235" to-port="0"/>
<edge from-layer="230" from-port="4" to-layer="257" to-port="0"/>
<edge from-layer="230" from-port="4" to-layer="295" to-port="1"/>
<edge from-layer="230" from-port="3" to-layer="295" to-port="0"/>
<edge from-layer="231" from-port="0" to-layer="232" to-port="0"/>
<edge from-layer="232" from-port="1" to-layer="234" to-port="0"/>
<edge from-layer="233" from-port="0" to-layer="234" to-port="1"/>
<edge from-layer="234" from-port="2" to-layer="235" to-port="1"/>
<edge from-layer="235" from-port="2" to-layer="237" to-port="0"/>
<edge from-layer="236" from-port="0" to-layer="237" to-port="1"/>
<edge from-layer="237" from-port="2" to-layer="238" to-port="0"/>
<edge from-layer="238" from-port="1" to-layer="243" to-port="0"/>
<edge from-layer="239" from-port="0" to-layer="243" to-port="1"/>
<edge from-layer="240" from-port="0" to-layer="243" to-port="2"/>
<edge from-layer="241" from-port="0" to-layer="243" to-port="3"/>
<edge from-layer="242" from-port="0" to-layer="243" to-port="4"/>
<edge from-layer="243" from-port="5" to-layer="248" to-port="0"/>
<edge from-layer="244" from-port="0" to-layer="245" to-port="0"/>
<edge from-layer="245" from-port="1" to-layer="247" to-port="0"/>
<edge from-layer="246" from-port="0" to-layer="247" to-port="1"/>
<edge from-layer="247" from-port="2" to-layer="248" to-port="1"/>
<edge from-layer="248" from-port="2" to-layer="250" to-port="0"/>
<edge from-layer="249" from-port="0" to-layer="250" to-port="1"/>
<edge from-layer="250" from-port="2" to-layer="251" to-port="0"/>
<edge from-layer="251" from-port="1" to-layer="256" to-port="0"/>
<edge from-layer="252" from-port="0" to-layer="256" to-port="1"/>
<edge from-layer="253" from-port="0" to-layer="256" to-port="2"/>
<edge from-layer="254" from-port="0" to-layer="256" to-port="3"/>
<edge from-layer="255" from-port="0" to-layer="256" to-port="4"/>
<edge from-layer="256" from-port="5" to-layer="257" to-port="1"/>
<edge from-layer="257" from-port="2" to-layer="262" to-port="0"/>
<edge from-layer="258" from-port="0" to-layer="262" to-port="1"/>
<edge from-layer="259" from-port="0" to-layer="262" to-port="2"/>
<edge from-layer="260" from-port="0" to-layer="262" to-port="3"/>
<edge from-layer="261" from-port="0" to-layer="262" to-port="4"/>
<edge from-layer="262" from-port="5" to-layer="295" to-port="2"/>
<edge from-layer="262" from-port="5" to-layer="289" to-port="0"/>
<edge from-layer="262" from-port="5" to-layer="267" to-port="0"/>
<edge from-layer="263" from-port="0" to-layer="264" to-port="0"/>
<edge from-layer="264" from-port="1" to-layer="266" to-port="0"/>
<edge from-layer="265" from-port="0" to-layer="266" to-port="1"/>
<edge from-layer="266" from-port="2" to-layer="267" to-port="1"/>
<edge from-layer="267" from-port="2" to-layer="269" to-port="0"/>
<edge from-layer="268" from-port="0" to-layer="269" to-port="1"/>
<edge from-layer="269" from-port="2" to-layer="270" to-port="0"/>
<edge from-layer="270" from-port="1" to-layer="275" to-port="0"/>
<edge from-layer="271" from-port="0" to-layer="275" to-port="1"/>
<edge from-layer="272" from-port="0" to-layer="275" to-port="2"/>
<edge from-layer="273" from-port="0" to-layer="275" to-port="3"/>
<edge from-layer="274" from-port="0" to-layer="275" to-port="4"/>
<edge from-layer="275" from-port="5" to-layer="280" to-port="0"/>
<edge from-layer="276" from-port="0" to-layer="277" to-port="0"/>
<edge from-layer="277" from-port="1" to-layer="279" to-port="0"/>
<edge from-layer="278" from-port="0" to-layer="279" to-port="1"/>
<edge from-layer="279" from-port="2" to-layer="280" to-port="1"/>
<edge from-layer="280" from-port="2" to-layer="282" to-port="0"/>
<edge from-layer="281" from-port="0" to-layer="282" to-port="1"/>
<edge from-layer="282" from-port="2" to-layer="283" to-port="0"/>
<edge from-layer="283" from-port="1" to-layer="288" to-port="0"/>
<edge from-layer="284" from-port="0" to-layer="288" to-port="1"/>
<edge from-layer="285" from-port="0" to-layer="288" to-port="2"/>
<edge from-layer="286" from-port="0" to-layer="288" to-port="3"/>
<edge from-layer="287" from-port="0" to-layer="288" to-port="4"/>
<edge from-layer="288" from-port="5" to-layer="289" to-port="1"/>
<edge from-layer="289" from-port="2" to-layer="294" to-port="0"/>
<edge from-layer="290" from-port="0" to-layer="294" to-port="1"/>
<edge from-layer="291" from-port="0" to-layer="294" to-port="2"/>
<edge from-layer="292" from-port="0" to-layer="294" to-port="3"/>
<edge from-layer="293" from-port="0" to-layer="294" to-port="4"/>
<edge from-layer="294" from-port="5" to-layer="295" to-port="3"/>
<edge from-layer="295" from-port="4" to-layer="300" to-port="0"/>
<edge from-layer="296" from-port="0" to-layer="297" to-port="0"/>
<edge from-layer="297" from-port="1" to-layer="299" to-port="0"/>
<edge from-layer="298" from-port="0" to-layer="299" to-port="1"/>
<edge from-layer="299" from-port="2" to-layer="300" to-port="1"/>
<edge from-layer="300" from-port="2" to-layer="302" to-port="0"/>
<edge from-layer="301" from-port="0" to-layer="302" to-port="1"/>
<edge from-layer="302" from-port="2" to-layer="303" to-port="0"/>
<edge from-layer="303" from-port="1" to-layer="308" to-port="0"/>
<edge from-layer="304" from-port="0" to-layer="308" to-port="1"/>
<edge from-layer="305" from-port="0" to-layer="308" to-port="2"/>
<edge from-layer="306" from-port="0" to-layer="308" to-port="3"/>
<edge from-layer="307" from-port="0" to-layer="308" to-port="4"/>
<edge from-layer="308" from-port="5" to-layer="313" to-port="0"/>
<edge from-layer="308" from-port="5" to-layer="421" to-port="1"/>
<edge from-layer="309" from-port="0" to-layer="310" to-port="0"/>
<edge from-layer="310" from-port="1" to-layer="312" to-port="0"/>
<edge from-layer="311" from-port="0" to-layer="312" to-port="1"/>
<edge from-layer="312" from-port="2" to-layer="313" to-port="1"/>
<edge from-layer="313" from-port="2" to-layer="315" to-port="0"/>
<edge from-layer="314" from-port="0" to-layer="315" to-port="1"/>
<edge from-layer="315" from-port="2" to-layer="316" to-port="0"/>
<edge from-layer="316" from-port="1" to-layer="321" to-port="0"/>
<edge from-layer="317" from-port="0" to-layer="321" to-port="1"/>
<edge from-layer="318" from-port="0" to-layer="321" to-port="2"/>
<edge from-layer="319" from-port="0" to-layer="321" to-port="3"/>
<edge from-layer="320" from-port="0" to-layer="321" to-port="4"/>
<edge from-layer="321" from-port="5" to-layer="326" to-port="0"/>
<edge from-layer="322" from-port="0" to-layer="323" to-port="0"/>
<edge from-layer="323" from-port="1" to-layer="325" to-port="0"/>
<edge from-layer="324" from-port="0" to-layer="325" to-port="1"/>
<edge from-layer="325" from-port="2" to-layer="326" to-port="1"/>
<edge from-layer="326" from-port="2" to-layer="328" to-port="0"/>
<edge from-layer="327" from-port="0" to-layer="328" to-port="1"/>
<edge from-layer="328" from-port="2" to-layer="329" to-port="0"/>
<edge from-layer="329" from-port="1" to-layer="334" to-port="0"/>
<edge from-layer="330" from-port="0" to-layer="334" to-port="1"/>
<edge from-layer="331" from-port="0" to-layer="334" to-port="2"/>
<edge from-layer="332" from-port="0" to-layer="334" to-port="3"/>
<edge from-layer="333" from-port="0" to-layer="334" to-port="4"/>
<edge from-layer="334" from-port="5" to-layer="337" to-port="0"/>
<edge from-layer="335" from-port="0" to-layer="337" to-port="1"/>
<edge from-layer="336" from-port="0" to-layer="337" to-port="2"/>
<edge from-layer="337" from-port="4" to-layer="342" to-port="0"/>
<edge from-layer="337" from-port="4" to-layer="370" to-port="1"/>
<edge from-layer="337" from-port="3" to-layer="370" to-port="0"/>
<edge from-layer="337" from-port="4" to-layer="364" to-port="0"/>
<edge from-layer="338" from-port="0" to-layer="339" to-port="0"/>
<edge from-layer="339" from-port="1" to-layer="341" to-port="0"/>
<edge from-layer="340" from-port="0" to-layer="341" to-port="1"/>
<edge from-layer="341" from-port="2" to-layer="342" to-port="1"/>
<edge from-layer="342" from-port="2" to-layer="344" to-port="0"/>
<edge from-layer="343" from-port="0" to-layer="344" to-port="1"/>
<edge from-layer="344" from-port="2" to-layer="345" to-port="0"/>
<edge from-layer="345" from-port="1" to-layer="350" to-port="0"/>
<edge from-layer="346" from-port="0" to-layer="350" to-port="1"/>
<edge from-layer="347" from-port="0" to-layer="350" to-port="2"/>
<edge from-layer="348" from-port="0" to-layer="350" to-port="3"/>
<edge from-layer="349" from-port="0" to-layer="350" to-port="4"/>
<edge from-layer="350" from-port="5" to-layer="355" to-port="0"/>
<edge from-layer="351" from-port="0" to-layer="352" to-port="0"/>
<edge from-layer="352" from-port="1" to-layer="354" to-port="0"/>
<edge from-layer="353" from-port="0" to-layer="354" to-port="1"/>
<edge from-layer="354" from-port="2" to-layer="355" to-port="1"/>
<edge from-layer="355" from-port="2" to-layer="357" to-port="0"/>
<edge from-layer="356" from-port="0" to-layer="357" to-port="1"/>
<edge from-layer="357" from-port="2" to-layer="358" to-port="0"/>
<edge from-layer="358" from-port="1" to-layer="363" to-port="0"/>
<edge from-layer="359" from-port="0" to-layer="363" to-port="1"/>
<edge from-layer="360" from-port="0" to-layer="363" to-port="2"/>
<edge from-layer="361" from-port="0" to-layer="363" to-port="3"/>
<edge from-layer="362" from-port="0" to-layer="363" to-port="4"/>
<edge from-layer="363" from-port="5" to-layer="364" to-port="1"/>
<edge from-layer="364" from-port="2" to-layer="369" to-port="0"/>
<edge from-layer="365" from-port="0" to-layer="369" to-port="1"/>
<edge from-layer="366" from-port="0" to-layer="369" to-port="2"/>
<edge from-layer="367" from-port="0" to-layer="369" to-port="3"/>
<edge from-layer="368" from-port="0" to-layer="369" to-port="4"/>
<edge from-layer="369" from-port="5" to-layer="370" to-port="2"/>
<edge from-layer="370" from-port="3" to-layer="375" to-port="0"/>
<edge from-layer="371" from-port="0" to-layer="372" to-port="0"/>
<edge from-layer="372" from-port="1" to-layer="374" to-port="0"/>
<edge from-layer="373" from-port="0" to-layer="374" to-port="1"/>
<edge from-layer="374" from-port="2" to-layer="375" to-port="1"/>
<edge from-layer="375" from-port="2" to-layer="377" to-port="0"/>
<edge from-layer="376" from-port="0" to-layer="377" to-port="1"/>
<edge from-layer="377" from-port="2" to-layer="378" to-port="0"/>
<edge from-layer="378" from-port="1" to-layer="383" to-port="0"/>
<edge from-layer="379" from-port="0" to-layer="383" to-port="1"/>
<edge from-layer="380" from-port="0" to-layer="383" to-port="2"/>
<edge from-layer="381" from-port="0" to-layer="383" to-port="3"/>
<edge from-layer="382" from-port="0" to-layer="383" to-port="4"/>
<edge from-layer="383" from-port="5" to-layer="388" to-port="0"/>
<edge from-layer="384" from-port="0" to-layer="385" to-port="0"/>
<edge from-layer="385" from-port="1" to-layer="387" to-port="0"/>
<edge from-layer="386" from-port="0" to-layer="387" to-port="1"/>
<edge from-layer="387" from-port="2" to-layer="388" to-port="1"/>
<edge from-layer="388" from-port="2" to-layer="390" to-port="0"/>
<edge from-layer="389" from-port="0" to-layer="390" to-port="1"/>
<edge from-layer="390" from-port="2" to-layer="395" to-port="0"/>
<edge from-layer="391" from-port="0" to-layer="395" to-port="1"/>
<edge from-layer="392" from-port="0" to-layer="395" to-port="2"/>
<edge from-layer="393" from-port="0" to-layer="395" to-port="3"/>
<edge from-layer="394" from-port="0" to-layer="395" to-port="4"/>
<edge from-layer="395" from-port="5" to-layer="396" to-port="0"/>
<edge from-layer="395" from-port="5" to-layer="399" to-port="0"/>
<edge from-layer="396" from-port="1" to-layer="397" to-port="0"/>
<edge from-layer="396" from-port="1" to-layer="399" to-port="1"/>
<edge from-layer="397" from-port="1" to-layer="398" to-port="0"/>
<edge from-layer="397" from-port="1" to-layer="399" to-port="2"/>
<edge from-layer="398" from-port="1" to-layer="399" to-port="3"/>
<edge from-layer="399" from-port="4" to-layer="404" to-port="0"/>
<edge from-layer="400" from-port="0" to-layer="401" to-port="0"/>
<edge from-layer="401" from-port="1" to-layer="403" to-port="0"/>
<edge from-layer="402" from-port="0" to-layer="403" to-port="1"/>
<edge from-layer="403" from-port="2" to-layer="404" to-port="1"/>
<edge from-layer="404" from-port="2" to-layer="406" to-port="0"/>
<edge from-layer="405" from-port="0" to-layer="406" to-port="1"/>
<edge from-layer="406" from-port="2" to-layer="407" to-port="0"/>
<edge from-layer="407" from-port="1" to-layer="412" to-port="0"/>
<edge from-layer="408" from-port="0" to-layer="412" to-port="1"/>
<edge from-layer="409" from-port="0" to-layer="412" to-port="2"/>
<edge from-layer="410" from-port="0" to-layer="412" to-port="3"/>
<edge from-layer="411" from-port="0" to-layer="412" to-port="4"/>
<edge from-layer="412" from-port="5" to-layer="696" to-port="1"/>
<edge from-layer="412" from-port="5" to-layer="415" to-port="0"/>
<edge from-layer="413" from-port="0" to-layer="415" to-port="1"/>
<edge from-layer="414" from-port="0" to-layer="415" to-port="2"/>
<edge from-layer="415" from-port="3" to-layer="420" to-port="0"/>
<edge from-layer="416" from-port="0" to-layer="420" to-port="1"/>
<edge from-layer="417" from-port="0" to-layer="420" to-port="2"/>
<edge from-layer="418" from-port="0" to-layer="420" to-port="3"/>
<edge from-layer="419" from-port="0" to-layer="420" to-port="4"/>
<edge from-layer="420" from-port="5" to-layer="421" to-port="0"/>
<edge from-layer="421" from-port="2" to-layer="426" to-port="0"/>
<edge from-layer="422" from-port="0" to-layer="423" to-port="0"/>
<edge from-layer="423" from-port="1" to-layer="425" to-port="0"/>
<edge from-layer="424" from-port="0" to-layer="425" to-port="1"/>
<edge from-layer="425" from-port="2" to-layer="426" to-port="1"/>
<edge from-layer="426" from-port="2" to-layer="428" to-port="0"/>
<edge from-layer="427" from-port="0" to-layer="428" to-port="1"/>
<edge from-layer="428" from-port="2" to-layer="429" to-port="0"/>
<edge from-layer="429" from-port="1" to-layer="434" to-port="0"/>
<edge from-layer="430" from-port="0" to-layer="434" to-port="1"/>
<edge from-layer="431" from-port="0" to-layer="434" to-port="2"/>
<edge from-layer="432" from-port="0" to-layer="434" to-port="3"/>
<edge from-layer="433" from-port="0" to-layer="434" to-port="4"/>
<edge from-layer="434" from-port="5" to-layer="437" to-port="0"/>
<edge from-layer="435" from-port="0" to-layer="437" to-port="1"/>
<edge from-layer="436" from-port="0" to-layer="437" to-port="2"/>
<edge from-layer="437" from-port="4" to-layer="442" to-port="0"/>
<edge from-layer="437" from-port="4" to-layer="464" to-port="1"/>
<edge from-layer="437" from-port="3" to-layer="464" to-port="0"/>
<edge from-layer="438" from-port="0" to-layer="439" to-port="0"/>
<edge from-layer="439" from-port="1" to-layer="441" to-port="0"/>
<edge from-layer="440" from-port="0" to-layer="441" to-port="1"/>
<edge from-layer="441" from-port="2" to-layer="442" to-port="1"/>
<edge from-layer="442" from-port="2" to-layer="444" to-port="0"/>
<edge from-layer="443" from-port="0" to-layer="444" to-port="1"/>
<edge from-layer="444" from-port="2" to-layer="445" to-port="0"/>
<edge from-layer="445" from-port="1" to-layer="450" to-port="0"/>
<edge from-layer="446" from-port="0" to-layer="450" to-port="1"/>
<edge from-layer="447" from-port="0" to-layer="450" to-port="2"/>
<edge from-layer="448" from-port="0" to-layer="450" to-port="3"/>
<edge from-layer="449" from-port="0" to-layer="450" to-port="4"/>
<edge from-layer="450" from-port="5" to-layer="455" to-port="0"/>
<edge from-layer="451" from-port="0" to-layer="452" to-port="0"/>
<edge from-layer="452" from-port="1" to-layer="454" to-port="0"/>
<edge from-layer="453" from-port="0" to-layer="454" to-port="1"/>
<edge from-layer="454" from-port="2" to-layer="455" to-port="1"/>
<edge from-layer="455" from-port="2" to-layer="457" to-port="0"/>
<edge from-layer="456" from-port="0" to-layer="457" to-port="1"/>
<edge from-layer="457" from-port="2" to-layer="458" to-port="0"/>
<edge from-layer="458" from-port="1" to-layer="463" to-port="0"/>
<edge from-layer="459" from-port="0" to-layer="463" to-port="1"/>
<edge from-layer="460" from-port="0" to-layer="463" to-port="2"/>
<edge from-layer="461" from-port="0" to-layer="463" to-port="3"/>
<edge from-layer="462" from-port="0" to-layer="463" to-port="4"/>
<edge from-layer="463" from-port="5" to-layer="464" to-port="2"/>
<edge from-layer="464" from-port="3" to-layer="469" to-port="0"/>
<edge from-layer="465" from-port="0" to-layer="466" to-port="0"/>
<edge from-layer="466" from-port="1" to-layer="468" to-port="0"/>
<edge from-layer="467" from-port="0" to-layer="468" to-port="1"/>
<edge from-layer="468" from-port="2" to-layer="469" to-port="1"/>
<edge from-layer="469" from-port="2" to-layer="471" to-port="0"/>
<edge from-layer="470" from-port="0" to-layer="471" to-port="1"/>
<edge from-layer="471" from-port="2" to-layer="472" to-port="0"/>
<edge from-layer="472" from-port="1" to-layer="477" to-port="0"/>
<edge from-layer="473" from-port="0" to-layer="477" to-port="1"/>
<edge from-layer="474" from-port="0" to-layer="477" to-port="2"/>
<edge from-layer="475" from-port="0" to-layer="477" to-port="3"/>
<edge from-layer="476" from-port="0" to-layer="477" to-port="4"/>
<edge from-layer="477" from-port="5" to-layer="591" to-port="1"/>
<edge from-layer="477" from-port="5" to-layer="480" to-port="0"/>
<edge from-layer="478" from-port="0" to-layer="480" to-port="1"/>
<edge from-layer="479" from-port="0" to-layer="480" to-port="2"/>
<edge from-layer="480" from-port="3" to-layer="485" to-port="0"/>
<edge from-layer="481" from-port="0" to-layer="485" to-port="1"/>
<edge from-layer="482" from-port="0" to-layer="485" to-port="2"/>
<edge from-layer="483" from-port="0" to-layer="485" to-port="3"/>
<edge from-layer="484" from-port="0" to-layer="485" to-port="4"/>
<edge from-layer="485" from-port="5" to-layer="486" to-port="0"/>
<edge from-layer="486" from-port="2" to-layer="491" to-port="0"/>
<edge from-layer="487" from-port="0" to-layer="488" to-port="0"/>
<edge from-layer="488" from-port="1" to-layer="490" to-port="0"/>
<edge from-layer="489" from-port="0" to-layer="490" to-port="1"/>
<edge from-layer="490" from-port="2" to-layer="491" to-port="1"/>
<edge from-layer="491" from-port="2" to-layer="493" to-port="0"/>
<edge from-layer="492" from-port="0" to-layer="493" to-port="1"/>
<edge from-layer="493" from-port="2" to-layer="494" to-port="0"/>
<edge from-layer="494" from-port="1" to-layer="499" to-port="0"/>
<edge from-layer="495" from-port="0" to-layer="499" to-port="1"/>
<edge from-layer="496" from-port="0" to-layer="499" to-port="2"/>
<edge from-layer="497" from-port="0" to-layer="499" to-port="3"/>
<edge from-layer="498" from-port="0" to-layer="499" to-port="4"/>
<edge from-layer="499" from-port="5" to-layer="502" to-port="0"/>
<edge from-layer="500" from-port="0" to-layer="502" to-port="1"/>
<edge from-layer="501" from-port="0" to-layer="502" to-port="2"/>
<edge from-layer="502" from-port="4" to-layer="529" to-port="1"/>
<edge from-layer="502" from-port="3" to-layer="529" to-port="0"/>
<edge from-layer="502" from-port="4" to-layer="507" to-port="0"/>
<edge from-layer="503" from-port="0" to-layer="504" to-port="0"/>
<edge from-layer="504" from-port="1" to-layer="506" to-port="0"/>
<edge from-layer="505" from-port="0" to-layer="506" to-port="1"/>
<edge from-layer="506" from-port="2" to-layer="507" to-port="1"/>
<edge from-layer="507" from-port="2" to-layer="509" to-port="0"/>
<edge from-layer="508" from-port="0" to-layer="509" to-port="1"/>
<edge from-layer="509" from-port="2" to-layer="510" to-port="0"/>
<edge from-layer="510" from-port="1" to-layer="515" to-port="0"/>
<edge from-layer="511" from-port="0" to-layer="515" to-port="1"/>
<edge from-layer="512" from-port="0" to-layer="515" to-port="2"/>
<edge from-layer="513" from-port="0" to-layer="515" to-port="3"/>
<edge from-layer="514" from-port="0" to-layer="515" to-port="4"/>
<edge from-layer="515" from-port="5" to-layer="520" to-port="0"/>
<edge from-layer="516" from-port="0" to-layer="517" to-port="0"/>
<edge from-layer="517" from-port="1" to-layer="519" to-port="0"/>
<edge from-layer="518" from-port="0" to-layer="519" to-port="1"/>
<edge from-layer="519" from-port="2" to-layer="520" to-port="1"/>
<edge from-layer="520" from-port="2" to-layer="522" to-port="0"/>
<edge from-layer="521" from-port="0" to-layer="522" to-port="1"/>
<edge from-layer="522" from-port="2" to-layer="523" to-port="0"/>
<edge from-layer="523" from-port="1" to-layer="528" to-port="0"/>
<edge from-layer="524" from-port="0" to-layer="528" to-port="1"/>
<edge from-layer="525" from-port="0" to-layer="528" to-port="2"/>
<edge from-layer="526" from-port="0" to-layer="528" to-port="3"/>
<edge from-layer="527" from-port="0" to-layer="528" to-port="4"/>
<edge from-layer="528" from-port="5" to-layer="529" to-port="2"/>
<edge from-layer="529" from-port="3" to-layer="534" to-port="0"/>
<edge from-layer="530" from-port="0" to-layer="531" to-port="0"/>
<edge from-layer="531" from-port="1" to-layer="533" to-port="0"/>
<edge from-layer="532" from-port="0" to-layer="533" to-port="1"/>
<edge from-layer="533" from-port="2" to-layer="534" to-port="1"/>
<edge from-layer="534" from-port="2" to-layer="536" to-port="0"/>
<edge from-layer="535" from-port="0" to-layer="536" to-port="1"/>
<edge from-layer="536" from-port="2" to-layer="537" to-port="0"/>
<edge from-layer="537" from-port="1" to-layer="542" to-port="0"/>
<edge from-layer="538" from-port="0" to-layer="542" to-port="1"/>
<edge from-layer="539" from-port="0" to-layer="542" to-port="2"/>
<edge from-layer="540" from-port="0" to-layer="542" to-port="3"/>
<edge from-layer="541" from-port="0" to-layer="542" to-port="4"/>
<edge from-layer="542" from-port="5" to-layer="547" to-port="0"/>
<edge from-layer="542" from-port="5" to-layer="582" to-port="0"/>
<edge from-layer="542" from-port="5" to-layer="832" to-port="0"/>
<edge from-layer="543" from-port="0" to-layer="544" to-port="0"/>
<edge from-layer="544" from-port="1" to-layer="546" to-port="0"/>
<edge from-layer="545" from-port="0" to-layer="546" to-port="1"/>
<edge from-layer="546" from-port="2" to-layer="547" to-port="1"/>
<edge from-layer="547" from-port="2" to-layer="549" to-port="0"/>
<edge from-layer="548" from-port="0" to-layer="549" to-port="1"/>
<edge from-layer="549" from-port="2" to-layer="550" to-port="0"/>
<edge from-layer="550" from-port="1" to-layer="555" to-port="0"/>
<edge from-layer="551" from-port="0" to-layer="555" to-port="1"/>
<edge from-layer="552" from-port="0" to-layer="555" to-port="2"/>
<edge from-layer="553" from-port="0" to-layer="555" to-port="3"/>
<edge from-layer="554" from-port="0" to-layer="555" to-port="4"/>
<edge from-layer="555" from-port="5" to-layer="560" to-port="0"/>
<edge from-layer="556" from-port="0" to-layer="557" to-port="0"/>
<edge from-layer="557" from-port="1" to-layer="559" to-port="0"/>
<edge from-layer="558" from-port="0" to-layer="559" to-port="1"/>
<edge from-layer="559" from-port="2" to-layer="560" to-port="1"/>
<edge from-layer="560" from-port="2" to-layer="562" to-port="0"/>
<edge from-layer="561" from-port="0" to-layer="562" to-port="1"/>
<edge from-layer="562" from-port="2" to-layer="563" to-port="0"/>
<edge from-layer="563" from-port="1" to-layer="568" to-port="0"/>
<edge from-layer="564" from-port="0" to-layer="568" to-port="1"/>
<edge from-layer="565" from-port="0" to-layer="568" to-port="2"/>
<edge from-layer="566" from-port="0" to-layer="568" to-port="3"/>
<edge from-layer="567" from-port="0" to-layer="568" to-port="4"/>
<edge from-layer="568" from-port="5" to-layer="573" to-port="0"/>
<edge from-layer="569" from-port="0" to-layer="570" to-port="0"/>
<edge from-layer="570" from-port="1" to-layer="572" to-port="0"/>
<edge from-layer="571" from-port="0" to-layer="572" to-port="1"/>
<edge from-layer="572" from-port="2" to-layer="573" to-port="1"/>
<edge from-layer="573" from-port="2" to-layer="575" to-port="0"/>
<edge from-layer="574" from-port="0" to-layer="575" to-port="1"/>
<edge from-layer="575" from-port="2" to-layer="577" to-port="0"/>
<edge from-layer="576" from-port="0" to-layer="577" to-port="1"/>
<edge from-layer="577" from-port="2" to-layer="788" to-port="0"/>
<edge from-layer="578" from-port="0" to-layer="579" to-port="0"/>
<edge from-layer="579" from-port="1" to-layer="581" to-port="0"/>
<edge from-layer="580" from-port="0" to-layer="581" to-port="1"/>
<edge from-layer="581" from-port="2" to-layer="582" to-port="1"/>
<edge from-layer="582" from-port="2" to-layer="584" to-port="0"/>
<edge from-layer="583" from-port="0" to-layer="584" to-port="1"/>
<edge from-layer="584" from-port="2" to-layer="585" to-port="0"/>
<edge from-layer="585" from-port="1" to-layer="590" to-port="0"/>
<edge from-layer="586" from-port="0" to-layer="590" to-port="1"/>
<edge from-layer="587" from-port="0" to-layer="590" to-port="2"/>
<edge from-layer="588" from-port="0" to-layer="590" to-port="3"/>
<edge from-layer="589" from-port="0" to-layer="590" to-port="4"/>
<edge from-layer="590" from-port="5" to-layer="591" to-port="0"/>
<edge from-layer="591" from-port="2" to-layer="596" to-port="0"/>
<edge from-layer="592" from-port="0" to-layer="593" to-port="0"/>
<edge from-layer="593" from-port="1" to-layer="595" to-port="0"/>
<edge from-layer="594" from-port="0" to-layer="595" to-port="1"/>
<edge from-layer="595" from-port="2" to-layer="596" to-port="1"/>
<edge from-layer="596" from-port="2" to-layer="598" to-port="0"/>
<edge from-layer="597" from-port="0" to-layer="598" to-port="1"/>
<edge from-layer="598" from-port="2" to-layer="599" to-port="0"/>
<edge from-layer="599" from-port="1" to-layer="604" to-port="0"/>
<edge from-layer="600" from-port="0" to-layer="604" to-port="1"/>
<edge from-layer="601" from-port="0" to-layer="604" to-port="2"/>
<edge from-layer="602" from-port="0" to-layer="604" to-port="3"/>
<edge from-layer="603" from-port="0" to-layer="604" to-port="4"/>
<edge from-layer="604" from-port="5" to-layer="607" to-port="0"/>
<edge from-layer="605" from-port="0" to-layer="607" to-port="1"/>
<edge from-layer="606" from-port="0" to-layer="607" to-port="2"/>
<edge from-layer="607" from-port="3" to-layer="634" to-port="0"/>
<edge from-layer="607" from-port="4" to-layer="634" to-port="1"/>
<edge from-layer="607" from-port="4" to-layer="612" to-port="0"/>
<edge from-layer="608" from-port="0" to-layer="609" to-port="0"/>
<edge from-layer="609" from-port="1" to-layer="611" to-port="0"/>
<edge from-layer="610" from-port="0" to-layer="611" to-port="1"/>
<edge from-layer="611" from-port="2" to-layer="612" to-port="1"/>
<edge from-layer="612" from-port="2" to-layer="614" to-port="0"/>
<edge from-layer="613" from-port="0" to-layer="614" to-port="1"/>
<edge from-layer="614" from-port="2" to-layer="615" to-port="0"/>
<edge from-layer="615" from-port="1" to-layer="620" to-port="0"/>
<edge from-layer="616" from-port="0" to-layer="620" to-port="1"/>
<edge from-layer="617" from-port="0" to-layer="620" to-port="2"/>
<edge from-layer="618" from-port="0" to-layer="620" to-port="3"/>
<edge from-layer="619" from-port="0" to-layer="620" to-port="4"/>
<edge from-layer="620" from-port="5" to-layer="625" to-port="0"/>
<edge from-layer="621" from-port="0" to-layer="622" to-port="0"/>
<edge from-layer="622" from-port="1" to-layer="624" to-port="0"/>
<edge from-layer="623" from-port="0" to-layer="624" to-port="1"/>
<edge from-layer="624" from-port="2" to-layer="625" to-port="1"/>
<edge from-layer="625" from-port="2" to-layer="627" to-port="0"/>
<edge from-layer="626" from-port="0" to-layer="627" to-port="1"/>
<edge from-layer="627" from-port="2" to-layer="628" to-port="0"/>
<edge from-layer="628" from-port="1" to-layer="633" to-port="0"/>
<edge from-layer="629" from-port="0" to-layer="633" to-port="1"/>
<edge from-layer="630" from-port="0" to-layer="633" to-port="2"/>
<edge from-layer="631" from-port="0" to-layer="633" to-port="3"/>
<edge from-layer="632" from-port="0" to-layer="633" to-port="4"/>
<edge from-layer="633" from-port="5" to-layer="634" to-port="2"/>
<edge from-layer="634" from-port="3" to-layer="639" to-port="0"/>
<edge from-layer="635" from-port="0" to-layer="636" to-port="0"/>
<edge from-layer="636" from-port="1" to-layer="638" to-port="0"/>
<edge from-layer="637" from-port="0" to-layer="638" to-port="1"/>
<edge from-layer="638" from-port="2" to-layer="639" to-port="1"/>
<edge from-layer="639" from-port="2" to-layer="641" to-port="0"/>
<edge from-layer="640" from-port="0" to-layer="641" to-port="1"/>
<edge from-layer="641" from-port="2" to-layer="642" to-port="0"/>
<edge from-layer="642" from-port="1" to-layer="647" to-port="0"/>
<edge from-layer="643" from-port="0" to-layer="647" to-port="1"/>
<edge from-layer="644" from-port="0" to-layer="647" to-port="2"/>
<edge from-layer="645" from-port="0" to-layer="647" to-port="3"/>
<edge from-layer="646" from-port="0" to-layer="647" to-port="4"/>
<edge from-layer="647" from-port="5" to-layer="652" to-port="0"/>
<edge from-layer="647" from-port="5" to-layer="867" to-port="0"/>
<edge from-layer="647" from-port="5" to-layer="687" to-port="0"/>
<edge from-layer="648" from-port="0" to-layer="649" to-port="0"/>
<edge from-layer="649" from-port="1" to-layer="651" to-port="0"/>
<edge from-layer="650" from-port="0" to-layer="651" to-port="1"/>
<edge from-layer="651" from-port="2" to-layer="652" to-port="1"/>
<edge from-layer="652" from-port="2" to-layer="654" to-port="0"/>
<edge from-layer="653" from-port="0" to-layer="654" to-port="1"/>
<edge from-layer="654" from-port="2" to-layer="655" to-port="0"/>
<edge from-layer="655" from-port="1" to-layer="660" to-port="0"/>
<edge from-layer="656" from-port="0" to-layer="660" to-port="1"/>
<edge from-layer="657" from-port="0" to-layer="660" to-port="2"/>
<edge from-layer="658" from-port="0" to-layer="660" to-port="3"/>
<edge from-layer="659" from-port="0" to-layer="660" to-port="4"/>
<edge from-layer="660" from-port="5" to-layer="665" to-port="0"/>
<edge from-layer="661" from-port="0" to-layer="662" to-port="0"/>
<edge from-layer="662" from-port="1" to-layer="664" to-port="0"/>
<edge from-layer="663" from-port="0" to-layer="664" to-port="1"/>
<edge from-layer="664" from-port="2" to-layer="665" to-port="1"/>
<edge from-layer="665" from-port="2" to-layer="667" to-port="0"/>
<edge from-layer="666" from-port="0" to-layer="667" to-port="1"/>
<edge from-layer="667" from-port="2" to-layer="668" to-port="0"/>
<edge from-layer="668" from-port="1" to-layer="673" to-port="0"/>
<edge from-layer="669" from-port="0" to-layer="673" to-port="1"/>
<edge from-layer="670" from-port="0" to-layer="673" to-port="2"/>
<edge from-layer="671" from-port="0" to-layer="673" to-port="3"/>
<edge from-layer="672" from-port="0" to-layer="673" to-port="4"/>
<edge from-layer="673" from-port="5" to-layer="678" to-port="0"/>
<edge from-layer="674" from-port="0" to-layer="675" to-port="0"/>
<edge from-layer="675" from-port="1" to-layer="677" to-port="0"/>
<edge from-layer="676" from-port="0" to-layer="677" to-port="1"/>
<edge from-layer="677" from-port="2" to-layer="678" to-port="1"/>
<edge from-layer="678" from-port="2" to-layer="680" to-port="0"/>
<edge from-layer="679" from-port="0" to-layer="680" to-port="1"/>
<edge from-layer="680" from-port="2" to-layer="682" to-port="0"/>
<edge from-layer="681" from-port="0" to-layer="682" to-port="1"/>
<edge from-layer="682" from-port="2" to-layer="788" to-port="1"/>
<edge from-layer="683" from-port="0" to-layer="684" to-port="0"/>
<edge from-layer="684" from-port="1" to-layer="686" to-port="0"/>
<edge from-layer="685" from-port="0" to-layer="686" to-port="1"/>
<edge from-layer="686" from-port="2" to-layer="687" to-port="1"/>
<edge from-layer="687" from-port="2" to-layer="689" to-port="0"/>
<edge from-layer="688" from-port="0" to-layer="689" to-port="1"/>
<edge from-layer="689" from-port="2" to-layer="690" to-port="0"/>
<edge from-layer="690" from-port="1" to-layer="695" to-port="0"/>
<edge from-layer="691" from-port="0" to-layer="695" to-port="1"/>
<edge from-layer="692" from-port="0" to-layer="695" to-port="2"/>
<edge from-layer="693" from-port="0" to-layer="695" to-port="3"/>
<edge from-layer="694" from-port="0" to-layer="695" to-port="4"/>
<edge from-layer="695" from-port="5" to-layer="696" to-port="0"/>
<edge from-layer="696" from-port="2" to-layer="701" to-port="0"/>
<edge from-layer="697" from-port="0" to-layer="698" to-port="0"/>
<edge from-layer="698" from-port="1" to-layer="700" to-port="0"/>
<edge from-layer="699" from-port="0" to-layer="700" to-port="1"/>
<edge from-layer="700" from-port="2" to-layer="701" to-port="1"/>
<edge from-layer="701" from-port="2" to-layer="703" to-port="0"/>
<edge from-layer="702" from-port="0" to-layer="703" to-port="1"/>
<edge from-layer="703" from-port="2" to-layer="704" to-port="0"/>
<edge from-layer="704" from-port="1" to-layer="709" to-port="0"/>
<edge from-layer="705" from-port="0" to-layer="709" to-port="1"/>
<edge from-layer="706" from-port="0" to-layer="709" to-port="2"/>
<edge from-layer="707" from-port="0" to-layer="709" to-port="3"/>
<edge from-layer="708" from-port="0" to-layer="709" to-port="4"/>
<edge from-layer="709" from-port="5" to-layer="712" to-port="0"/>
<edge from-layer="710" from-port="0" to-layer="712" to-port="1"/>
<edge from-layer="711" from-port="0" to-layer="712" to-port="2"/>
<edge from-layer="712" from-port="4" to-layer="717" to-port="0"/>
<edge from-layer="712" from-port="4" to-layer="739" to-port="1"/>
<edge from-layer="712" from-port="3" to-layer="739" to-port="0"/>
<edge from-layer="713" from-port="0" to-layer="714" to-port="0"/>
<edge from-layer="714" from-port="1" to-layer="716" to-port="0"/>
<edge from-layer="715" from-port="0" to-layer="716" to-port="1"/>
<edge from-layer="716" from-port="2" to-layer="717" to-port="1"/>
<edge from-layer="717" from-port="2" to-layer="719" to-port="0"/>
<edge from-layer="718" from-port="0" to-layer="719" to-port="1"/>
<edge from-layer="719" from-port="2" to-layer="720" to-port="0"/>
<edge from-layer="720" from-port="1" to-layer="725" to-port="0"/>
<edge from-layer="721" from-port="0" to-layer="725" to-port="1"/>
<edge from-layer="722" from-port="0" to-layer="725" to-port="2"/>
<edge from-layer="723" from-port="0" to-layer="725" to-port="3"/>
<edge from-layer="724" from-port="0" to-layer="725" to-port="4"/>
<edge from-layer="725" from-port="5" to-layer="730" to-port="0"/>
<edge from-layer="726" from-port="0" to-layer="727" to-port="0"/>
<edge from-layer="727" from-port="1" to-layer="729" to-port="0"/>
<edge from-layer="728" from-port="0" to-layer="729" to-port="1"/>
<edge from-layer="729" from-port="2" to-layer="730" to-port="1"/>
<edge from-layer="730" from-port="2" to-layer="732" to-port="0"/>
<edge from-layer="731" from-port="0" to-layer="732" to-port="1"/>
<edge from-layer="732" from-port="2" to-layer="733" to-port="0"/>
<edge from-layer="733" from-port="1" to-layer="738" to-port="0"/>
<edge from-layer="734" from-port="0" to-layer="738" to-port="1"/>
<edge from-layer="735" from-port="0" to-layer="738" to-port="2"/>
<edge from-layer="736" from-port="0" to-layer="738" to-port="3"/>
<edge from-layer="737" from-port="0" to-layer="738" to-port="4"/>
<edge from-layer="738" from-port="5" to-layer="739" to-port="2"/>
<edge from-layer="739" from-port="3" to-layer="744" to-port="0"/>
<edge from-layer="740" from-port="0" to-layer="741" to-port="0"/>
<edge from-layer="741" from-port="1" to-layer="743" to-port="0"/>
<edge from-layer="742" from-port="0" to-layer="743" to-port="1"/>
<edge from-layer="743" from-port="2" to-layer="744" to-port="1"/>
<edge from-layer="744" from-port="2" to-layer="746" to-port="0"/>
<edge from-layer="745" from-port="0" to-layer="746" to-port="1"/>
<edge from-layer="746" from-port="2" to-layer="747" to-port="0"/>
<edge from-layer="747" from-port="1" to-layer="752" to-port="0"/>
<edge from-layer="748" from-port="0" to-layer="752" to-port="1"/>
<edge from-layer="749" from-port="0" to-layer="752" to-port="2"/>
<edge from-layer="750" from-port="0" to-layer="752" to-port="3"/>
<edge from-layer="751" from-port="0" to-layer="752" to-port="4"/>
<edge from-layer="752" from-port="5" to-layer="757" to-port="0"/>
<edge from-layer="752" from-port="5" to-layer="902" to-port="0"/>
<edge from-layer="753" from-port="0" to-layer="754" to-port="0"/>
<edge from-layer="754" from-port="1" to-layer="756" to-port="0"/>
<edge from-layer="755" from-port="0" to-layer="756" to-port="1"/>
<edge from-layer="756" from-port="2" to-layer="757" to-port="1"/>
<edge from-layer="757" from-port="2" to-layer="759" to-port="0"/>
<edge from-layer="758" from-port="0" to-layer="759" to-port="1"/>
<edge from-layer="759" from-port="2" to-layer="760" to-port="0"/>
<edge from-layer="760" from-port="1" to-layer="765" to-port="0"/>
<edge from-layer="761" from-port="0" to-layer="765" to-port="1"/>
<edge from-layer="762" from-port="0" to-layer="765" to-port="2"/>
<edge from-layer="763" from-port="0" to-layer="765" to-port="3"/>
<edge from-layer="764" from-port="0" to-layer="765" to-port="4"/>
<edge from-layer="765" from-port="5" to-layer="770" to-port="0"/>
<edge from-layer="766" from-port="0" to-layer="767" to-port="0"/>
<edge from-layer="767" from-port="1" to-layer="769" to-port="0"/>
<edge from-layer="768" from-port="0" to-layer="769" to-port="1"/>
<edge from-layer="769" from-port="2" to-layer="770" to-port="1"/>
<edge from-layer="770" from-port="2" to-layer="772" to-port="0"/>
<edge from-layer="771" from-port="0" to-layer="772" to-port="1"/>
<edge from-layer="772" from-port="2" to-layer="773" to-port="0"/>
<edge from-layer="773" from-port="1" to-layer="778" to-port="0"/>
<edge from-layer="774" from-port="0" to-layer="778" to-port="1"/>
<edge from-layer="775" from-port="0" to-layer="778" to-port="2"/>
<edge from-layer="776" from-port="0" to-layer="778" to-port="3"/>
<edge from-layer="777" from-port="0" to-layer="778" to-port="4"/>
<edge from-layer="778" from-port="5" to-layer="783" to-port="0"/>
<edge from-layer="779" from-port="0" to-layer="780" to-port="0"/>
<edge from-layer="780" from-port="1" to-layer="782" to-port="0"/>
<edge from-layer="781" from-port="0" to-layer="782" to-port="1"/>
<edge from-layer="782" from-port="2" to-layer="783" to-port="1"/>
<edge from-layer="783" from-port="2" to-layer="785" to-port="0"/>
<edge from-layer="784" from-port="0" to-layer="785" to-port="1"/>
<edge from-layer="785" from-port="2" to-layer="787" to-port="0"/>
<edge from-layer="786" from-port="0" to-layer="787" to-port="1"/>
<edge from-layer="787" from-port="2" to-layer="788" to-port="2"/>
<edge from-layer="788" from-port="3" to-layer="790" to-port="0"/>
<edge from-layer="789" from-port="0" to-layer="790" to-port="1"/>
<edge from-layer="790" from-port="2" to-layer="792" to-port="0"/>
<edge from-layer="791" from-port="0" to-layer="792" to-port="1"/>
<edge from-layer="792" from-port="2" to-layer="793" to-port="0"/>
<edge from-layer="793" from-port="1" to-layer="798" to-port="0"/>
<edge from-layer="794" from-port="0" to-layer="798" to-port="1"/>
<edge from-layer="795" from-port="0" to-layer="798" to-port="2"/>
<edge from-layer="796" from-port="0" to-layer="798" to-port="3"/>
<edge from-layer="797" from-port="0" to-layer="798" to-port="4"/>
<edge from-layer="798" from-port="5" to-layer="803" to-port="0"/>
<edge from-layer="799" from-port="0" to-layer="800" to-port="0"/>
<edge from-layer="800" from-port="1" to-layer="802" to-port="0"/>
<edge from-layer="801" from-port="0" to-layer="802" to-port="1"/>
<edge from-layer="802" from-port="2" to-layer="803" to-port="1"/>
<edge from-layer="803" from-port="2" to-layer="805" to-port="0"/>
<edge from-layer="804" from-port="0" to-layer="805" to-port="1"/>
<edge from-layer="805" from-port="2" to-layer="807" to-port="0"/>
<edge from-layer="805" from-port="2" to-layer="818" to-port="0"/>
<edge from-layer="806" from-port="0" to-layer="809" to-port="1"/>
<edge from-layer="806" from-port="0" to-layer="818" to-port="1"/>
<edge from-layer="807" from-port="1" to-layer="809" to-port="0"/>
<edge from-layer="808" from-port="0" to-layer="813" to-port="1"/>
<edge from-layer="808" from-port="0" to-layer="809" to-port="2"/>
<edge from-layer="809" from-port="3" to-layer="811" to-port="0"/>
<edge from-layer="809" from-port="3" to-layer="812" to-port="0"/>
<edge from-layer="810" from-port="0" to-layer="812" to-port="1"/>
<edge from-layer="810" from-port="0" to-layer="811" to-port="1"/>
<edge from-layer="811" from-port="2" to-layer="815" to-port="0"/>
<edge from-layer="812" from-port="2" to-layer="813" to-port="0"/>
<edge from-layer="813" from-port="2" to-layer="814" to-port="0"/>
<edge from-layer="814" from-port="1" to-layer="815" to-port="1"/>
<edge from-layer="815" from-port="2" to-layer="817" to-port="0"/>
<edge from-layer="816" from-port="0" to-layer="817" to-port="1"/>
<edge from-layer="817" from-port="2" to-layer="818" to-port="2"/>
<edge from-layer="818" from-port="3" to-layer="819" to-port="1"/>
<edge from-layer="818" from-port="4" to-layer="820" to-port="1"/>
<edge from-layer="819" from-port="2" to-layer="821" to-port="0"/>
<edge from-layer="819" from-port="2" to-layer="824" to-port="1"/>
<edge from-layer="820" from-port="2" to-layer="824" to-port="0"/>
<edge from-layer="820" from-port="2" to-layer="821" to-port="1"/>
<edge from-layer="821" from-port="2" to-layer="823" to-port="0"/>
<edge from-layer="822" from-port="0" to-layer="823" to-port="1"/>
<edge from-layer="823" from-port="2" to-layer="825" to-port="0"/>
<edge from-layer="824" from-port="2" to-layer="825" to-port="1"/>
<edge from-layer="825" from-port="2" to-layer="827" to-port="0"/>
<edge from-layer="826" from-port="0" to-layer="827" to-port="1"/>
<edge from-layer="827" from-port="2" to-layer="935" to-port="0"/>
<edge from-layer="828" from-port="0" to-layer="829" to-port="0"/>
<edge from-layer="829" from-port="1" to-layer="831" to-port="0"/>
<edge from-layer="830" from-port="0" to-layer="831" to-port="1"/>
<edge from-layer="831" from-port="2" to-layer="832" to-port="1"/>
<edge from-layer="832" from-port="2" to-layer="834" to-port="0"/>
<edge from-layer="833" from-port="0" to-layer="834" to-port="1"/>
<edge from-layer="834" from-port="2" to-layer="835" to-port="0"/>
<edge from-layer="835" from-port="1" to-layer="840" to-port="0"/>
<edge from-layer="836" from-port="0" to-layer="840" to-port="1"/>
<edge from-layer="837" from-port="0" to-layer="840" to-port="2"/>
<edge from-layer="838" from-port="0" to-layer="840" to-port="3"/>
<edge from-layer="839" from-port="0" to-layer="840" to-port="4"/>
<edge from-layer="840" from-port="5" to-layer="845" to-port="0"/>
<edge from-layer="841" from-port="0" to-layer="842" to-port="0"/>
<edge from-layer="842" from-port="1" to-layer="844" to-port="0"/>
<edge from-layer="843" from-port="0" to-layer="844" to-port="1"/>
<edge from-layer="844" from-port="2" to-layer="845" to-port="1"/>
<edge from-layer="845" from-port="2" to-layer="847" to-port="0"/>
<edge from-layer="846" from-port="0" to-layer="847" to-port="1"/>
<edge from-layer="847" from-port="2" to-layer="848" to-port="0"/>
<edge from-layer="848" from-port="1" to-layer="853" to-port="0"/>
<edge from-layer="849" from-port="0" to-layer="853" to-port="1"/>
<edge from-layer="850" from-port="0" to-layer="853" to-port="2"/>
<edge from-layer="851" from-port="0" to-layer="853" to-port="3"/>
<edge from-layer="852" from-port="0" to-layer="853" to-port="4"/>
<edge from-layer="853" from-port="5" to-layer="858" to-port="0"/>
<edge from-layer="854" from-port="0" to-layer="855" to-port="0"/>
<edge from-layer="855" from-port="1" to-layer="857" to-port="0"/>
<edge from-layer="856" from-port="0" to-layer="857" to-port="1"/>
<edge from-layer="857" from-port="2" to-layer="858" to-port="1"/>
<edge from-layer="858" from-port="2" to-layer="860" to-port="0"/>
<edge from-layer="859" from-port="0" to-layer="860" to-port="1"/>
<edge from-layer="860" from-port="2" to-layer="862" to-port="0"/>
<edge from-layer="861" from-port="0" to-layer="862" to-port="1"/>
<edge from-layer="862" from-port="2" to-layer="933" to-port="0"/>
<edge from-layer="863" from-port="0" to-layer="864" to-port="0"/>
<edge from-layer="864" from-port="1" to-layer="866" to-port="0"/>
<edge from-layer="865" from-port="0" to-layer="866" to-port="1"/>
<edge from-layer="866" from-port="2" to-layer="867" to-port="1"/>
<edge from-layer="867" from-port="2" to-layer="869" to-port="0"/>
<edge from-layer="868" from-port="0" to-layer="869" to-port="1"/>
<edge from-layer="869" from-port="2" to-layer="870" to-port="0"/>
<edge from-layer="870" from-port="1" to-layer="875" to-port="0"/>
<edge from-layer="871" from-port="0" to-layer="875" to-port="1"/>
<edge from-layer="872" from-port="0" to-layer="875" to-port="2"/>
<edge from-layer="873" from-port="0" to-layer="875" to-port="3"/>
<edge from-layer="874" from-port="0" to-layer="875" to-port="4"/>
<edge from-layer="875" from-port="5" to-layer="880" to-port="0"/>
<edge from-layer="876" from-port="0" to-layer="877" to-port="0"/>
<edge from-layer="877" from-port="1" to-layer="879" to-port="0"/>
<edge from-layer="878" from-port="0" to-layer="879" to-port="1"/>
<edge from-layer="879" from-port="2" to-layer="880" to-port="1"/>
<edge from-layer="880" from-port="2" to-layer="882" to-port="0"/>
<edge from-layer="881" from-port="0" to-layer="882" to-port="1"/>
<edge from-layer="882" from-port="2" to-layer="883" to-port="0"/>
<edge from-layer="883" from-port="1" to-layer="888" to-port="0"/>
<edge from-layer="884" from-port="0" to-layer="888" to-port="1"/>
<edge from-layer="885" from-port="0" to-layer="888" to-port="2"/>
<edge from-layer="886" from-port="0" to-layer="888" to-port="3"/>
<edge from-layer="887" from-port="0" to-layer="888" to-port="4"/>
<edge from-layer="888" from-port="5" to-layer="893" to-port="0"/>
<edge from-layer="889" from-port="0" to-layer="890" to-port="0"/>
<edge from-layer="890" from-port="1" to-layer="892" to-port="0"/>
<edge from-layer="891" from-port="0" to-layer="892" to-port="1"/>
<edge from-layer="892" from-port="2" to-layer="893" to-port="1"/>
<edge from-layer="893" from-port="2" to-layer="895" to-port="0"/>
<edge from-layer="894" from-port="0" to-layer="895" to-port="1"/>
<edge from-layer="895" from-port="2" to-layer="897" to-port="0"/>
<edge from-layer="896" from-port="0" to-layer="897" to-port="1"/>
<edge from-layer="897" from-port="2" to-layer="933" to-port="1"/>
<edge from-layer="898" from-port="0" to-layer="899" to-port="0"/>
<edge from-layer="899" from-port="1" to-layer="901" to-port="0"/>
<edge from-layer="900" from-port="0" to-layer="901" to-port="1"/>
<edge from-layer="901" from-port="2" to-layer="902" to-port="1"/>
<edge from-layer="902" from-port="2" to-layer="904" to-port="0"/>
<edge from-layer="903" from-port="0" to-layer="904" to-port="1"/>
<edge from-layer="904" from-port="2" to-layer="905" to-port="0"/>
<edge from-layer="905" from-port="1" to-layer="910" to-port="0"/>
<edge from-layer="906" from-port="0" to-layer="910" to-port="1"/>
<edge from-layer="907" from-port="0" to-layer="910" to-port="2"/>
<edge from-layer="908" from-port="0" to-layer="910" to-port="3"/>
<edge from-layer="909" from-port="0" to-layer="910" to-port="4"/>
<edge from-layer="910" from-port="5" to-layer="915" to-port="0"/>
<edge from-layer="911" from-port="0" to-layer="912" to-port="0"/>
<edge from-layer="912" from-port="1" to-layer="914" to-port="0"/>
<edge from-layer="913" from-port="0" to-layer="914" to-port="1"/>
<edge from-layer="914" from-port="2" to-layer="915" to-port="1"/>
<edge from-layer="915" from-port="2" to-layer="917" to-port="0"/>
<edge from-layer="916" from-port="0" to-layer="917" to-port="1"/>
<edge from-layer="917" from-port="2" to-layer="918" to-port="0"/>
<edge from-layer="918" from-port="1" to-layer="923" to-port="0"/>
<edge from-layer="919" from-port="0" to-layer="923" to-port="1"/>
<edge from-layer="920" from-port="0" to-layer="923" to-port="2"/>
<edge from-layer="921" from-port="0" to-layer="923" to-port="3"/>
<edge from-layer="922" from-port="0" to-layer="923" to-port="4"/>
<edge from-layer="923" from-port="5" to-layer="928" to-port="0"/>
<edge from-layer="924" from-port="0" to-layer="925" to-port="0"/>
<edge from-layer="925" from-port="1" to-layer="927" to-port="0"/>
<edge from-layer="926" from-port="0" to-layer="927" to-port="1"/>
<edge from-layer="927" from-port="2" to-layer="928" to-port="1"/>
<edge from-layer="928" from-port="2" to-layer="930" to-port="0"/>
<edge from-layer="929" from-port="0" to-layer="930" to-port="1"/>
<edge from-layer="930" from-port="2" to-layer="932" to-port="0"/>
<edge from-layer="931" from-port="0" to-layer="932" to-port="1"/>
<edge from-layer="932" from-port="2" to-layer="933" to-port="2"/>
<edge from-layer="933" from-port="3" to-layer="934" to-port="0"/>
<edge from-layer="934" from-port="1" to-layer="935" to-port="1"/>
<edge from-layer="935" from-port="2" to-layer="936" to-port="0"/>
</edges>
<rt_info>
<info name="OpenVINO Runtime" value="2026.2.0-21903-52ddc073857-releases/2026/2"/>
<Runtime_version value="2026.2.0-21903-52ddc073857-releases/2026/2"/>
<conversion_parameters>
<framework value="pytorch"/>
<is_python_object value="True"/>
</conversion_parameters>
<model_info>
<iou_threshold value="0.7"/>
<labels value="fire smoke"/>
<model_type value="YOLO"/>
<pad_value value="114"/>
<resize_type value="fit_to_window_letterbox"/>
<reverse_input_channels value="YES"/>
<scale_values value="255"/>
</model_info>
<nncf>
<friendly_names_were_updated value="True"/>
<quantization>
<advanced_parameters value="{}"/>
<fast_bias_correction value="True"/>
<ignored_scope>
<patterns value="['.*model.22/.*/Add', '.*model.22/.*/Sub*', '.*model.22/.*/Mul*', '.*model.22/.*/Div*']"/>
<types value="['Sigmoid']"/>
</ignored_scope>
<model_type value="None"/>
<preset value="mixed"/>
<subset_size value="300"/>
<target_device value="ANY"/>
</quantization>
<version value="3.2.0"/>
</nncf>
</rt_info>
</net>